…
snapshot_prefix: "vgg16_faster_rcnn_map"
average_loss: 100
iter_size: 2
I1010 13:29:21.748832 42139 solver.cpp:81] Creating training net from train_net file: models/map/VGG16/faster_rcnn_end2end/train.prototxt
I1010 13:29:21.749704 42139 net.cpp:49] Initializing net from parameters: 
name: "VGG_ILSVRC_16_layers"
state {
  phase: TRAIN
}
layer {
  name: "input-data"
  type: "Python"
  top: "data"
  top: "im_info"
  top: "gt_boxes"
  python_param {
    module: "roi_data_layer.layer"
    layer: "RoIDataLayer"
    param_str: "\'num_classes\': 2"
  }
}
layer {
  name: "conv1_1"
  type: "Convolution"
  bottom: "data"
  top: "conv1_1"
  param {
    lr_mult: 0
    decay_mult: 0
  }
  param {
    lr_mult: 0
    decay_mult: 0
  }
  convolution_param {
    num_output: 64
    pad: 1
    kernel_size: 3
  }
}
layer {
  name: "relu1_1"
  type: "ReLU"
  bottom: "conv1_1"
  top: "conv1_1"
}
layer {
  name: "conv1_2"
  type: "Convolution"
  bottom: "conv1_1"
  top: "conv1_2"
  param {
    lr_mult: 0
    decay_mult: 0
  }
  param {
    lr_mult: 0
    decay_mult: 0
  }
  convolution_param {
    num_output: 64
    pad: 1
    kernel_size: 3
  }
}
layer {
  name: "relu1_2"
  type: "ReLU"
  bottom: "conv1_2"
  top: "conv1_2"
}
layer {
  name: "pool1"
  type: "Pooling"
  bottom: "conv1_2"
  top: "pool1"
  pooling_param {
    pool: MAX
    kernel_size: 2
    stride: 2
  }
}
layer {
  name: "conv2_1"
  type: "Convolution"
  bottom: "pool1"
  top: "conv2_1"
  param {
    lr_mult: 0
    decay_mult: 0
  }
  param {
    lr_mult: 0
    decay_mult: 0
  }
  convolution_param {
    num_output: 128
    pad: 1
    kernel_size: 3
  }
}
layer {
  name: "relu2_1"
  type: "ReLU"
  bottom: "conv2_1"
  top: "conv2_1"
}
layer {
  name: "conv2_2"
  type: "Convolution"
  bottom: "conv2_1"
  top: "conv2_2"
  param {
    lr_mult: 0
    decay_mult: 0
  }
  param {
    lr_mult: 0
    decay_mult: 0
  }
  convolution_param {
    num_output: 128
    pad: 1
    kernel_size: 3
  }
}
layer {
  name: "relu2_2"
  type: "ReLU"
  bottom: "conv2_2"
  top: "conv2_2"
}
layer {
  name: "pool2"
  type: "Pooling"
  bottom: "conv2_2"
  top: "pool2"
  pooling_param {
    pool: MAX
    kernel_size: 2
    stride: 2
  }
}
layer {
  name: "conv3_1"
  type: "Convolution"
  bottom: "pool2"
  top: "conv3_1"
  param {
    lr_mult: 1
  }
  param {
    lr_mult: 2
  }
  convolution_param {
    num_output: 256
    pad: 1
    kernel_size: 3
  }
}
layer {
  name: "relu3_1"
  type: "ReLU"
  bottom: "conv3_1"
  top: "conv3_1"
}
layer {
  name: "conv3_2"
  type: "Convolution"
  bottom: "conv3_1"
  top: "conv3_2"
  param {
    lr_mult: 1
  }
  param {
    lr_mult: 2
  }
  convolution_param {
    num_output: 256
    pad: 1
    kernel_size: 3
  }
}
layer {
  name: "relu3_2"
  type: "ReLU"
  bottom: "conv3_2"
  top: "conv3_2"
}
layer {
  name: "conv3_3"
  type: "Convolution"
  bottom: "conv3_2"
  top: "conv3_3"
  param {
    lr_mult: 1
  }
  param {
    lr_mult: 2
  }
  convolution_param {
    num_output: 256
    pad: 1
    kernel_size: 3
  }
}
layer {
  name: "relu3_3"
  type: "ReLU"
  bottom: "conv3_3"
  top: "conv3_3"
}
layer {
  name: "pool3"
  type: "Pooling"
  bottom: "conv3_3"
  top: "pool3"
  pooling_param {
    pool: MAX
    kernel_size: 2
    stride: 2
  }
}
layer {
  name: "conv4_1"
  type: "Convolution"
  bottom: "pool3"
  top: "conv4_1"
  param {
    lr_mult: 1
  }
  param {
    lr_mult: 2
  }
  convolution_param {
    num_output: 512
    pad: 1
    kernel_size: 3
  }
}
layer {
  name: "relu4_1"
  type: "ReLU"
  bottom: "conv4_1"
  top: "conv4_1"
}
layer {
  name: "conv4_2"
  type: "Convolution"
  bottom: "conv4_1"
  top: "conv4_2"
  param {
    lr_mult: 1
  }
  param {
    lr_mult: 2
  }
  convolution_param {
    num_output: 512
    pad: 1
    kernel_size: 3
  }
}
layer {
  name: "relu4_2"
  type: "ReLU"
  bottom: "conv4_2"
  top: "conv4_2"
}
layer {
  name: "conv4_3"
  type: "Convolution"
  bottom: "conv4_2"
  top: "conv4_3"
  param {
    lr_mult: 1
  }
  param {
    lr_mult: 2
  }
  convolution_param {
    num_output: 512
    pad: 1
    kernel_size: 3
  }
}
layer {
  name: "relu4_3"
  type: "ReLU"
  bottom: "conv4_3"
  top: "conv4_3"
}
layer {
  name: "pool4"
  type: "Pooling"
  bottom: "conv4_3"
  top: "pool4"
  pooling_param {
    pool: MAX
    kernel_size: 2
    stride: 2
  }
}
layer {
  name: "conv5_1"
  type: "Convolution"
  bottom: "pool4"
  top: "conv5_1"
  param {
    lr_mult: 1
  }
  param {
    lr_mult: 2
  }
  convolution_param {
    num_output: 512
    pad: 1
    kernel_size: 3
  }
}
layer {
  name: "relu5_1"
  type: "ReLU"
  bottom: "conv5_1"
  top: "conv5_1"
}
layer {
  name: "conv5_2"
  type: "Convolution"
  bottom: "conv5_1"
  top: "conv5_2"
  param {
    lr_mult: 1
  }
  param {
    lr_mult: 2
  }
  convolution_param {
    num_output: 512
    pad: 1
    kernel_size: 3
  }
}
layer {
  name: "relu5_2"
  type: "ReLU"
  bottom: "conv5_2"
  top: "conv5_2"
}
layer {
  name: "conv5_3"
  type: "Convolution"
  bottom: "conv5_2"
  top: "conv5_3"
  param {
    lr_mult: 1
  }
  param {
    lr_mult: 2
  }
  convolution_param {
    num_output: 512
    pad: 1
    kernel_size: 3
  }
}
layer {
  name: "relu5_3"
  type: "ReLU"
  bottom: "conv5_3"
  top: "conv5_3"
}
layer {
  name: "rpn_conv/3x3"
  type: "Convolution"
  bottom: "conv5_3"
  top: "rpn/output"
  param {
    lr_mult: 1
  }
  param {
    lr_mult: 2
  }
  convolution_param {
    num_output: 512
    pad: 1
    kernel_size: 3
    stride: 1
    weight_filler {
      type: "gaussian"
      std: 0.01
    }
    bias_filler {
      type: "constant"
      value: 0
    }
  }
}
layer {
  name: "rpn_relu/3x3"
  type: "ReLU"
  bottom: "rpn/output"
  top: "rpn/output"
}
layer {
  name: "rpn_cls_score"
  type: "Convolution"
  bottom: "rpn/output"
  top: "rpn_cls_score"
  param {
    lr_mult: 1
  }
  param {
    lr_mult: 2
  }
  convolution_param {
    num_output: 18
    pad: 0
    kernel_size: 1
    stride: 1
    weight_filler {
      type: "gaussian"
      std: 0.01
    }
    bias_filler {
      type: "constant"
      value: 0
    }
  }
}
layer {
  name: "rpn_bbox_pred"
  type: "Convolution"
  bottom: "rpn/output"
  top: "rpn_bbox_pred"
  param {
    lr_mult: 1
  }
  param {
    lr_mult: 2
  }
  convolution_param {
    num_output: 36
    pad: 0
    kernel_size: 1
    stride: 1
    weight_filler {
      type: "gaussian"
      std: 0.01
    }
    bias_filler {
      type: "constant"
      value: 0
    }
  }
}
layer {
  name: "rpn_cls_score_reshape"
  type: "Reshape"
  bottom: "rpn_cls_score"
  top: "rpn_cls_score_reshape"
  reshape_param {
    shape {
      dim: 0
      dim: 2
      dim: -1
      dim: 0
    }
  }
}
layer {
  name: "rpn-data"
  type: "Python"
  bottom: "rpn_cls_score"
  bottom: "gt_boxes"
  bottom: "im_info"
  bottom: "data"
  top: "rpn_labels"
  top: "rpn_bbox_targets"
  top: "rpn_bbox_inside_weights"
  top: "rpn_bbox_outside_weights"
  python_param {
    module: "rpn.anchor_target_layer"
    layer: "AnchorTargetLayer"
    param_str: "\'feat_stride\': 16"
  }
}
layer {
  name: "rpn_loss_cls"
  type: "SoftmaxWithLoss"
  bottom: "rpn_cls_score_reshape"
  bottom: "rpn_labels"
  top: "rpn_cls_loss"
  loss_weight: 1
  propagate_down: true
  propagate_down: false
  loss_param {
    ignore_label: -1
    normalize: true
  }
}
layer {
  name: "rpn_loss_bbox"
  type: "SmoothL1Loss"
  bottom: "rpn_bbox_pred"
  bottom: "rpn_bbox_targets"
  bottom: "rpn_bbox_inside_weights"
  bottom: "rpn_bbox_outside_weights"
  top: "rpn_loss_bbox"
  loss_weight: 1
  smooth_l1_loss_param {
    sigma: 3
  }
}
layer {
  name: "rpn_cls_prob"
  type: "Softmax"
  bottom: "rpn_cls_score_reshape"
  top: "rpn_cls_prob"
}
layer {
  name: "rpn_cls_prob_reshape"
  type: "Reshape"
  bottom: "rpn_cls_prob"
  top: "rpn_cls_prob_reshape"
  reshape_param {
    shape {
      dim: 0
      dim: 18
      dim: -1
      dim: 0
    }
  }
}
layer {
  name: "proposal"
  type: "Python"
  bottom: "rpn_cls_prob_reshape"
  bottom: "rpn_bbox_pred"
  bottom: "im_info"
  top: "rpn_rois"
  python_param {
    module: "rpn.proposal_layer"
    layer: "ProposalLayer"
    param_str: "\'feat_stride\': 16"
  }
}
layer {
  name: "roi-data"
  type: "Python"
  bottom: "rpn_rois"
  bottom: "gt_boxes"
  top: "rois"
  top: "labels"
  top: "bbox_targets"
  top: "bbox_inside_weights"
  top: "bbox_outside_weights"
  python_param {
    module: "rpn.proposal_target_layer"
    layer: "ProposalTargetLayer"
    param_str: "\'num_classes\': 2"
  }
}
layer {
  name: "roi_pool5"
  type: "ROIPooling"
  bottom: "conv5_3"
  bottom: "rois"
  top: "pool5"
  roi_pooling_param {
    pooled_h: 7
    pooled_w: 7
    spatial_scale: 0.0625
  }
}
layer {
  name: "fc6"
  type: "InnerProduct"
  bottom: "pool5"
  top: "fc6"
  param {
    lr_mult: 1
  }
  param {
    lr_mult: 2
  }
  inner_product_param {
    num_output: 4096
  }
}
layer {
  name: "relu6"
  type: "ReLU"
  bottom: "fc6"
  top: "fc6"
}
layer {
  name: "drop6"
  type: "Dropout"
  bottom: "fc6"
  top: "fc6"
  dropout_param {
    dropout_ratio: 0.5
  }
}
layer {
  name: "fc7"
  type: "InnerProduct"
  bottom: "fc6"
  top: "fc7"
  param {
    lr_mult: 1
  }
  param {
    lr_mult: 2
  }
  inner_product_param {
    num_output: 4096
  }
}
layer {
  name: "relu7"
  type: "ReLU"
  bottom: "fc7"
  top: "fc7"
}
layer {
  name: "drop7"
  type: "Dropout"
  bottom: "fc7"
  top: "fc7"
  dropout_param {
    dropout_ratio: 0.5
  }
}
layer {
  name: "cls_score"
  type: "InnerProduct"
  bottom: "fc7"
  top: "cls_score"
  param {
    lr_mult: 1
  }
  param {
    lr_mult: 2
  }
  inner_product_param {
    num_output: 2
    weight_filler {
      type: "gaussian"
      std: 0.01
    }
    bias_filler {
      type: "constant"
      value: 0
    }
  }
}
layer {
  name: "bbox_pred"
  type: "InnerProduct"
  bottom: "fc7"
  top: "bbox_pred"
  param {
    lr_mult: 1
  }
  param {
    lr_mult: 2
  }
  inner_product_param {
    num_output: 8
    weight_filler {
      type: "gaussian"
      std: 0.001
    }
    bias_filler {
      type: "constant"
      value: 0
    }
  }
}
layer {
  name: "loss_cls"
  type: "SoftmaxWithLoss"
  bottom: "cls_score"
  bottom: "labels"
  top: "loss_cls"
  loss_weight: 1
  propagate_down: true
  propagate_down: false
}
layer {
  name: "loss_bbox"
  type: "SmoothL1Loss"
  bottom: "bbox_pred"
  bottom: "bbox_targets"
  bottom: "bbox_inside_weights"
  bottom: "bbox_outside_weights"
  top: "loss_bbox"
  loss_weight: 1
}
layer {
  name: "accuracy"
  type: "Accuracy"
  bottom: "cls_score"
  bottom: "labels"
  top: "accuracy"
}
I1010 13:29:21.750079 42139 layer_factory.hpp:77] Creating layer input-data
I1010 13:29:21.751111 42139 net.cpp:106] Creating Layer input-data
I1010 13:29:21.751128 42139 net.cpp:411] input-data -> data
I1010 13:29:21.751140 42139 net.cpp:411] input-data -> im_info
I1010 13:29:21.751148 42139 net.cpp:411] input-data -> gt_boxes
I1010 13:29:21.765146 42139 net.cpp:150] Setting up input-data
I1010 13:29:21.765164 42139 net.cpp:157] Top shape: 1 3 1000 1000 (3000000)
I1010 13:29:21.765168 42139 net.cpp:157] Top shape: 1 3 (3)
I1010 13:29:21.765172 42139 net.cpp:157] Top shape: 1 4 (4)
I1010 13:29:21.765172 42139 net.cpp:165] Memory required for data: 12000028
I1010 13:29:21.765177 42139 layer_factory.hpp:77] Creating layer data_input-data_0_split
I1010 13:29:21.765203 42139 net.cpp:106] Creating Layer data_input-data_0_split
I1010 13:29:21.765208 42139 net.cpp:454] data_input-data_0_split <- data
I1010 13:29:21.765214 42139 net.cpp:411] data_input-data_0_split -> data_input-data_0_split_0
I1010 13:29:21.765221 42139 net.cpp:411] data_input-data_0_split -> data_input-data_0_split_1
I1010 13:29:21.765275 42139 net.cpp:150] Setting up data_input-data_0_split
I1010 13:29:21.765283 42139 net.cpp:157] Top shape: 1 3 1000 1000 (3000000)
I1010 13:29:21.765286 42139 net.cpp:157] Top shape: 1 3 1000 1000 (3000000)
I1010 13:29:21.765288 42139 net.cpp:165] Memory required for data: 36000028
I1010 13:29:21.765291 42139 layer_factory.hpp:77] Creating layer im_info_input-data_1_split
I1010 13:29:21.765296 42139 net.cpp:106] Creating Layer im_info_input-data_1_split
I1010 13:29:21.765300 42139 net.cpp:454] im_info_input-data_1_split <- im_info
I1010 13:29:21.765306 42139 net.cpp:411] im_info_input-data_1_split -> im_info_input-data_1_split_0
I1010 13:29:21.765311 42139 net.cpp:411] im_info_input-data_1_split -> im_info_input-data_1_split_1
I1010 13:29:21.765343 42139 net.cpp:150] Setting up im_info_input-data_1_split
I1010 13:29:21.765350 42139 net.cpp:157] Top shape: 1 3 (3)
I1010 13:29:21.765353 42139 net.cpp:157] Top shape: 1 3 (3)
I1010 13:29:21.765355 42139 net.cpp:165] Memory required for data: 36000052
I1010 13:29:21.765357 42139 layer_factory.hpp:77] Creating layer gt_boxes_input-data_2_split
I1010 13:29:21.765362 42139 net.cpp:106] Creating Layer gt_boxes_input-data_2_split
I1010 13:29:21.765364 42139 net.cpp:454] gt_boxes_input-data_2_split <- gt_boxes
I1010 13:29:21.765370 42139 net.cpp:411] gt_boxes_input-data_2_split -> gt_boxes_input-data_2_split_0
I1010 13:29:21.765377 42139 net.cpp:411] gt_boxes_input-data_2_split -> gt_boxes_input-data_2_split_1
I1010 13:29:21.765408 42139 net.cpp:150] Setting up gt_boxes_input-data_2_split
I1010 13:29:21.765414 42139 net.cpp:157] Top shape: 1 4 (4)
I1010 13:29:21.765419 42139 net.cpp:157] Top shape: 1 4 (4)
I1010 13:29:21.765420 42139 net.cpp:165] Memory required for data: 36000084
I1010 13:29:21.765422 42139 layer_factory.hpp:77] Creating layer conv1_1
I1010 13:29:21.765434 42139 net.cpp:106] Creating Layer conv1_1
I1010 13:29:21.765439 42139 net.cpp:454] conv1_1 <- data_input-data_0_split_0
I1010 13:29:21.765445 42139 net.cpp:411] conv1_1 -> conv1_1
I1010 13:29:21.768817 42139 net.cpp:150] Setting up conv1_1
I1010 13:29:21.768833 42139 net.cpp:157] Top shape: 1 64 1000 1000 (64000000)
I1010 13:29:21.768836 42139 net.cpp:165] Memory required for data: 292000084
I1010 13:29:21.768847 42139 layer_factory.hpp:77] Creating layer relu1_1
I1010 13:29:21.768868 42139 net.cpp:106] Creating Layer relu1_1
I1010 13:29:21.768873 42139 net.cpp:454] relu1_1 <- conv1_1
I1010 13:29:21.768878 42139 net.cpp:397] relu1_1 -> conv1_1 (in-place)
I1010 13:29:21.768885 42139 net.cpp:150] Setting up relu1_1
I1010 13:29:21.768889 42139 net.cpp:157] Top shape: 1 64 1000 1000 (64000000)
I1010 13:29:21.768890 42139 net.cpp:165] Memory required for data: 548000084
I1010 13:29:21.768893 42139 layer_factory.hpp:77] Creating layer conv1_2
I1010 13:29:21.768901 42139 net.cpp:106] Creating Layer conv1_2
I1010 13:29:21.768903 42139 net.cpp:454] conv1_2 <- conv1_1
I1010 13:29:21.768908 42139 net.cpp:411] conv1_2 -> conv1_2
I1010 13:29:21.772239 42139 net.cpp:150] Setting up conv1_2
I1010 13:29:21.772256 42139 net.cpp:157] Top shape: 1 64 1000 1000 (64000000)
I1010 13:29:21.772259 42139 net.cpp:165] Memory required for data: 804000084
I1010 13:29:21.772269 42139 layer_factory.hpp:77] Creating layer relu1_2
I1010 13:29:21.772274 42139 net.cpp:106] Creating Layer relu1_2
I1010 13:29:21.772290 42139 net.cpp:454] relu1_2 <- conv1_2
I1010 13:29:21.772296 42139 net.cpp:397] relu1_2 -> conv1_2 (in-place)
I1010 13:29:21.772302 42139 net.cpp:150] Setting up relu1_2
I1010 13:29:21.772305 42139 net.cpp:157] Top shape: 1 64 1000 1000 (64000000)
I1010 13:29:21.772307 42139 net.cpp:165] Memory required for data: 1060000084
I1010 13:29:21.772310 42139 layer_factory.hpp:77] Creating layer pool1
I1010 13:29:21.772318 42139 net.cpp:106] Creating Layer pool1
I1010 13:29:21.772320 42139 net.cpp:454] pool1 <- conv1_2
I1010 13:29:21.772325 42139 net.cpp:411] pool1 -> pool1
I1010 13:29:21.772373 42139 net.cpp:150] Setting up pool1
I1010 13:29:21.772382 42139 net.cpp:157] Top shape: 1 64 500 500 (16000000)
I1010 13:29:21.772384 42139 net.cpp:165] Memory required for data: 1124000084
I1010 13:29:21.772387 42139 layer_factory.hpp:77] Creating layer conv2_1
I1010 13:29:21.772394 42139 net.cpp:106] Creating Layer conv2_1
I1010 13:29:21.772397 42139 net.cpp:454] conv2_1 <- pool1
I1010 13:29:21.772403 42139 net.cpp:411] conv2_1 -> conv2_1
I1010 13:29:21.774083 42139 net.cpp:150] Setting up conv2_1
I1010 13:29:21.774097 42139 net.cpp:157] Top shape: 1 128 500 500 (32000000)
I1010 13:29:21.774101 42139 net.cpp:165] Memory required for data: 1252000084
I1010 13:29:21.774109 42139 layer_factory.hpp:77] Creating layer relu2_1
I1010 13:29:21.774118 42139 net.cpp:106] Creating Layer relu2_1
I1010 13:29:21.774134 42139 net.cpp:454] relu2_1 <- conv2_1
I1010 13:29:21.774140 42139 net.cpp:397] relu2_1 -> conv2_1 (in-place)
I1010 13:29:21.774147 42139 net.cpp:150] Setting up relu2_1
I1010 13:29:21.774149 42139 net.cpp:157] Top shape: 1 128 500 500 (32000000)
I1010 13:29:21.774152 42139 net.cpp:165] Memory required for data: 1380000084
I1010 13:29:21.774153 42139 layer_factory.hpp:77] Creating layer conv2_2
I1010 13:29:21.774161 42139 net.cpp:106] Creating Layer conv2_2
I1010 13:29:21.774163 42139 net.cpp:454] conv2_2 <- conv2_1
I1010 13:29:21.774168 42139 net.cpp:411] conv2_2 -> conv2_2
I1010 13:29:21.775382 42139 net.cpp:150] Setting up conv2_2
I1010 13:29:21.775409 42139 net.cpp:157] Top shape: 1 128 500 500 (32000000)
I1010 13:29:21.775413 42139 net.cpp:165] Memory required for data: 1508000084
I1010 13:29:21.775418 42139 layer_factory.hpp:77] Creating layer relu2_2
I1010 13:29:21.775441 42139 net.cpp:106] Creating Layer relu2_2
I1010 13:29:21.775445 42139 net.cpp:454] relu2_2 <- conv2_2
I1010 13:29:21.775449 42139 net.cpp:397] relu2_2 -> conv2_2 (in-place)
I1010 13:29:21.775466 42139 net.cpp:150] Setting up relu2_2
I1010 13:29:21.775470 42139 net.cpp:157] Top shape: 1 128 500 500 (32000000)
I1010 13:29:21.775472 42139 net.cpp:165] Memory required for data: 1636000084
I1010 13:29:21.775475 42139 layer_factory.hpp:77] Creating layer pool2
I1010 13:29:21.775480 42139 net.cpp:106] Creating Layer pool2
I1010 13:29:21.775483 42139 net.cpp:454] pool2 <- conv2_2
I1010 13:29:21.775487 42139 net.cpp:411] pool2 -> pool2
I1010 13:29:21.775558 42139 net.cpp:150] Setting up pool2
I1010 13:29:21.775568 42139 net.cpp:157] Top shape: 1 128 250 250 (8000000)
I1010 13:29:21.775569 42139 net.cpp:165] Memory required for data: 1668000084
I1010 13:29:21.775573 42139 layer_factory.hpp:77] Creating layer conv3_1
I1010 13:29:21.775580 42139 net.cpp:106] Creating Layer conv3_1
I1010 13:29:21.775583 42139 net.cpp:454] conv3_1 <- pool2
I1010 13:29:21.775588 42139 net.cpp:411] conv3_1 -> conv3_1
I1010 13:29:21.776757 42139 net.cpp:150] Setting up conv3_1
I1010 13:29:21.776772 42139 net.cpp:157] Top shape: 1 256 250 250 (16000000)
I1010 13:29:21.776774 42139 net.cpp:165] Memory required for data: 1732000084
I1010 13:29:21.776783 42139 layer_factory.hpp:77] Creating layer relu3_1
I1010 13:29:21.776788 42139 net.cpp:106] Creating Layer relu3_1
I1010 13:29:21.776806 42139 net.cpp:454] relu3_1 <- conv3_1
I1010 13:29:21.776813 42139 net.cpp:397] relu3_1 -> conv3_1 (in-place)
I1010 13:29:21.776819 42139 net.cpp:150] Setting up relu3_1
I1010 13:29:21.776823 42139 net.cpp:157] Top shape: 1 256 250 250 (16000000)
I1010 13:29:21.776824 42139 net.cpp:165] Memory required for data: 1796000084
I1010 13:29:21.776826 42139 layer_factory.hpp:77] Creating layer conv3_2
I1010 13:29:21.776836 42139 net.cpp:106] Creating Layer conv3_2
I1010 13:29:21.776839 42139 net.cpp:454] conv3_2 <- conv3_1
I1010 13:29:21.776844 42139 net.cpp:411] conv3_2 -> conv3_2
I1010 13:29:21.778764 42139 net.cpp:150] Setting up conv3_2
I1010 13:29:21.778779 42139 net.cpp:157] Top shape: 1 256 250 250 (16000000)
I1010 13:29:21.778781 42139 net.cpp:165] Memory required for data: 1860000084
I1010 13:29:21.778787 42139 layer_factory.hpp:77] Creating layer relu3_2
I1010 13:29:21.778796 42139 net.cpp:106] Creating Layer relu3_2
I1010 13:29:21.778800 42139 net.cpp:454] relu3_2 <- conv3_2
I1010 13:29:21.778817 42139 net.cpp:397] relu3_2 -> conv3_2 (in-place)
I1010 13:29:21.778823 42139 net.cpp:150] Setting up relu3_2
I1010 13:29:21.778826 42139 net.cpp:157] Top shape: 1 256 250 250 (16000000)
I1010 13:29:21.778828 42139 net.cpp:165] Memory required for data: 1924000084
I1010 13:29:21.778831 42139 layer_factory.hpp:77] Creating layer conv3_3
I1010 13:29:21.778838 42139 net.cpp:106] Creating Layer conv3_3
I1010 13:29:21.778841 42139 net.cpp:454] conv3_3 <- conv3_2
I1010 13:29:21.778846 42139 net.cpp:411] conv3_3 -> conv3_3
I1010 13:29:21.780679 42139 net.cpp:150] Setting up conv3_3
I1010 13:29:21.780694 42139 net.cpp:157] Top shape: 1 256 250 250 (16000000)
I1010 13:29:21.780696 42139 net.cpp:165] Memory required for data: 1988000084
I1010 13:29:21.780702 42139 layer_factory.hpp:77] Creating layer relu3_3
I1010 13:29:21.780710 42139 net.cpp:106] Creating Layer relu3_3
I1010 13:29:21.780712 42139 net.cpp:454] relu3_3 <- conv3_3
I1010 13:29:21.780730 42139 net.cpp:397] relu3_3 -> conv3_3 (in-place)
I1010 13:29:21.780736 42139 net.cpp:150] Setting up relu3_3
I1010 13:29:21.780740 42139 net.cpp:157] Top shape: 1 256 250 250 (16000000)
I1010 13:29:21.780742 42139 net.cpp:165] Memory required for data: 2052000084
I1010 13:29:21.780745 42139 layer_factory.hpp:77] Creating layer pool3
I1010 13:29:21.780750 42139 net.cpp:106] Creating Layer pool3
I1010 13:29:21.780752 42139 net.cpp:454] pool3 <- conv3_3
I1010 13:29:21.780756 42139 net.cpp:411] pool3 -> pool3
I1010 13:29:21.780809 42139 net.cpp:150] Setting up pool3
I1010 13:29:21.780817 42139 net.cpp:157] Top shape: 1 256 125 125 (4000000)
I1010 13:29:21.780819 42139 net.cpp:165] Memory required for data: 2068000084
I1010 13:29:21.780822 42139 layer_factory.hpp:77] Creating layer conv4_1
I1010 13:29:21.780830 42139 net.cpp:106] Creating Layer conv4_1
I1010 13:29:21.780833 42139 net.cpp:454] conv4_1 <- pool3
I1010 13:29:21.780838 42139 net.cpp:411] conv4_1 -> conv4_1
I1010 13:29:21.785136 42139 net.cpp:150] Setting up conv4_1
I1010 13:29:21.785151 42139 net.cpp:157] Top shape: 1 512 125 125 (8000000)
I1010 13:29:21.785152 42139 net.cpp:165] Memory required for data: 2100000084
I1010 13:29:21.785159 42139 layer_factory.hpp:77] Creating layer relu4_1
I1010 13:29:21.785166 42139 net.cpp:106] Creating Layer relu4_1
I1010 13:29:21.785168 42139 net.cpp:454] relu4_1 <- conv4_1
I1010 13:29:21.785187 42139 net.cpp:397] relu4_1 -> conv4_1 (in-place)
I1010 13:29:21.785194 42139 net.cpp:150] Setting up relu4_1
I1010 13:29:21.785198 42139 net.cpp:157] Top shape: 1 512 125 125 (8000000)
I1010 13:29:21.785200 42139 net.cpp:165] Memory required for data: 2132000084
I1010 13:29:21.785202 42139 layer_factory.hpp:77] Creating layer conv4_2
I1010 13:29:21.785210 42139 net.cpp:106] Creating Layer conv4_2
I1010 13:29:21.785212 42139 net.cpp:454] conv4_2 <- conv4_1
I1010 13:29:21.785217 42139 net.cpp:411] conv4_2 -> conv4_2
I1010 13:29:21.790722 42139 net.cpp:150] Setting up conv4_2
I1010 13:29:21.790748 42139 net.cpp:157] Top shape: 1 512 125 125 (8000000)
I1010 13:29:21.790751 42139 net.cpp:165] Memory required for data: 2164000084
I1010 13:29:21.790778 42139 layer_factory.hpp:77] Creating layer relu4_2
I1010 13:29:21.790784 42139 net.cpp:106] Creating Layer relu4_2
I1010 13:29:21.790787 42139 net.cpp:454] relu4_2 <- conv4_2
I1010 13:29:21.790804 42139 net.cpp:397] relu4_2 -> conv4_2 (in-place)
I1010 13:29:21.790812 42139 net.cpp:150] Setting up relu4_2
I1010 13:29:21.790814 42139 net.cpp:157] Top shape: 1 512 125 125 (8000000)
I1010 13:29:21.790817 42139 net.cpp:165] Memory required for data: 2196000084
I1010 13:29:21.790818 42139 layer_factory.hpp:77] Creating layer conv4_3
I1010 13:29:21.790827 42139 net.cpp:106] Creating Layer conv4_3
I1010 13:29:21.790828 42139 net.cpp:454] conv4_3 <- conv4_2
I1010 13:29:21.790834 42139 net.cpp:411] conv4_3 -> conv4_3
I1010 13:29:21.796311 42139 net.cpp:150] Setting up conv4_3
I1010 13:29:21.796325 42139 net.cpp:157] Top shape: 1 512 125 125 (8000000)
I1010 13:29:21.796340 42139 net.cpp:165] Memory required for data: 2228000084
I1010 13:29:21.796347 42139 layer_factory.hpp:77] Creating layer relu4_3
I1010 13:29:21.796366 42139 net.cpp:106] Creating Layer relu4_3
I1010 13:29:21.796370 42139 net.cpp:454] relu4_3 <- conv4_3
I1010 13:29:21.796377 42139 net.cpp:397] relu4_3 -> conv4_3 (in-place)
I1010 13:29:21.796383 42139 net.cpp:150] Setting up relu4_3
I1010 13:29:21.796399 42139 net.cpp:157] Top shape: 1 512 125 125 (8000000)
I1010 13:29:21.796402 42139 net.cpp:165] Memory required for data: 2260000084
I1010 13:29:21.796404 42139 layer_factory.hpp:77] Creating layer pool4
I1010 13:29:21.796409 42139 net.cpp:106] Creating Layer pool4
I1010 13:29:21.796411 42139 net.cpp:454] pool4 <- conv4_3
I1010 13:29:21.796416 42139 net.cpp:411] pool4 -> pool4
I1010 13:29:21.796489 42139 net.cpp:150] Setting up pool4
I1010 13:29:21.796497 42139 net.cpp:157] Top shape: 1 512 63 63 (2032128)
I1010 13:29:21.796499 42139 net.cpp:165] Memory required for data: 2268128596
I1010 13:29:21.796502 42139 layer_factory.hpp:77] Creating layer conv5_1
I1010 13:29:21.796510 42139 net.cpp:106] Creating Layer conv5_1
I1010 13:29:21.796514 42139 net.cpp:454] conv5_1 <- pool4
I1010 13:29:21.796521 42139 net.cpp:411] conv5_1 -> conv5_1
I1010 13:29:21.802158 42139 net.cpp:150] Setting up conv5_1
I1010 13:29:21.802173 42139 net.cpp:157] Top shape: 1 512 63 63 (2032128)
I1010 13:29:21.802175 42139 net.cpp:165] Memory required for data: 2276257108
I1010 13:29:21.802181 42139 layer_factory.hpp:77] Creating layer relu5_1
I1010 13:29:21.802187 42139 net.cpp:106] Creating Layer relu5_1
I1010 13:29:21.802191 42139 net.cpp:454] relu5_1 <- conv5_1
I1010 13:29:21.802209 42139 net.cpp:397] relu5_1 -> conv5_1 (in-place)
I1010 13:29:21.802217 42139 net.cpp:150] Setting up relu5_1
I1010 13:29:21.802220 42139 net.cpp:157] Top shape: 1 512 63 63 (2032128)
I1010 13:29:21.802222 42139 net.cpp:165] Memory required for data: 2284385620
I1010 13:29:21.802224 42139 layer_factory.hpp:77] Creating layer conv5_2
I1010 13:29:21.802230 42139 net.cpp:106] Creating Layer conv5_2
I1010 13:29:21.802233 42139 net.cpp:454] conv5_2 <- conv5_1
I1010 13:29:21.802239 42139 net.cpp:411] conv5_2 -> conv5_2
I1010 13:29:21.807875 42139 net.cpp:150] Setting up conv5_2
I1010 13:29:21.807904 42139 net.cpp:157] Top shape: 1 512 63 63 (2032128)
I1010 13:29:21.807907 42139 net.cpp:165] Memory required for data: 2292514132
I1010 13:29:21.807914 42139 layer_factory.hpp:77] Creating layer relu5_2
I1010 13:29:21.807934 42139 net.cpp:106] Creating Layer relu5_2
I1010 13:29:21.807936 42139 net.cpp:454] relu5_2 <- conv5_2
I1010 13:29:21.807940 42139 net.cpp:397] relu5_2 -> conv5_2 (in-place)
I1010 13:29:21.807946 42139 net.cpp:150] Setting up relu5_2
I1010 13:29:21.807950 42139 net.cpp:157] Top shape: 1 512 63 63 (2032128)
I1010 13:29:21.807951 42139 net.cpp:165] Memory required for data: 2300642644
I1010 13:29:21.807953 42139 layer_factory.hpp:77] Creating layer conv5_3
I1010 13:29:21.807968 42139 net.cpp:106] Creating Layer conv5_3
I1010 13:29:21.807973 42139 net.cpp:454] conv5_3 <- conv5_2
I1010 13:29:21.807978 42139 net.cpp:411] conv5_3 -> conv5_3
I1010 13:29:21.813453 42139 net.cpp:150] Setting up conv5_3
I1010 13:29:21.813482 42139 net.cpp:157] Top shape: 1 512 63 63 (2032128)
I1010 13:29:21.813485 42139 net.cpp:165] Memory required for data: 2308771156
I1010 13:29:21.813491 42139 layer_factory.hpp:77] Creating layer relu5_3
I1010 13:29:21.813509 42139 net.cpp:106] Creating Layer relu5_3
I1010 13:29:21.813513 42139 net.cpp:454] relu5_3 <- conv5_3
I1010 13:29:21.813518 42139 net.cpp:397] relu5_3 -> conv5_3 (in-place)
I1010 13:29:21.813522 42139 net.cpp:150] Setting up relu5_3
I1010 13:29:21.813539 42139 net.cpp:157] Top shape: 1 512 63 63 (2032128)
I1010 13:29:21.813541 42139 net.cpp:165] Memory required for data: 2316899668
I1010 13:29:21.813544 42139 layer_factory.hpp:77] Creating layer conv5_3_relu5_3_0_split
I1010 13:29:21.813551 42139 net.cpp:106] Creating Layer conv5_3_relu5_3_0_split
I1010 13:29:21.813554 42139 net.cpp:454] conv5_3_relu5_3_0_split <- conv5_3
I1010 13:29:21.813558 42139 net.cpp:411] conv5_3_relu5_3_0_split -> conv5_3_relu5_3_0_split_0
I1010 13:29:21.813563 42139 net.cpp:411] conv5_3_relu5_3_0_split -> conv5_3_relu5_3_0_split_1
I1010 13:29:21.813616 42139 net.cpp:150] Setting up conv5_3_relu5_3_0_split
I1010 13:29:21.813626 42139 net.cpp:157] Top shape: 1 512 63 63 (2032128)
I1010 13:29:21.813642 42139 net.cpp:157] Top shape: 1 512 63 63 (2032128)
I1010 13:29:21.813643 42139 net.cpp:165] Memory required for data: 2333156692
I1010 13:29:21.813647 42139 layer_factory.hpp:77] Creating layer rpn_conv/3x3
I1010 13:29:21.813658 42139 net.cpp:106] Creating Layer rpn_conv/3x3
I1010 13:29:21.813661 42139 net.cpp:454] rpn_conv/3x3 <- conv5_3_relu5_3_0_split_0
I1010 13:29:21.813668 42139 net.cpp:411] rpn_conv/3x3 -> rpn/output
I1010 13:29:21.843966 42139 net.cpp:150] Setting up rpn_conv/3x3
I1010 13:29:21.843981 42139 net.cpp:157] Top shape: 1 512 63 63 (2032128)
I1010 13:29:21.843983 42139 net.cpp:165] Memory required for data: 2341285204
I1010 13:29:21.843989 42139 layer_factory.hpp:77] Creating layer rpn_relu/3x3
I1010 13:29:21.843996 42139 net.cpp:106] Creating Layer rpn_relu/3x3
I1010 13:29:21.843998 42139 net.cpp:454] rpn_relu/3x3 <- rpn/output
I1010 13:29:21.844018 42139 net.cpp:397] rpn_relu/3x3 -> rpn/output (in-place)
I1010 13:29:21.844025 42139 net.cpp:150] Setting up rpn_relu/3x3
I1010 13:29:21.844029 42139 net.cpp:157] Top shape: 1 512 63 63 (2032128)
I1010 13:29:21.844030 42139 net.cpp:165] Memory required for data: 2349413716
I1010 13:29:21.844033 42139 layer_factory.hpp:77] Creating layer rpn/output_rpn_relu/3x3_0_split
I1010 13:29:21.844038 42139 net.cpp:106] Creating Layer rpn/output_rpn_relu/3x3_0_split
I1010 13:29:21.844039 42139 net.cpp:454] rpn/output_rpn_relu/3x3_0_split <- rpn/output
I1010 13:29:21.844043 42139 net.cpp:411] rpn/output_rpn_relu/3x3_0_split -> rpn/output_rpn_relu/3x3_0_split_0
I1010 13:29:21.844050 42139 net.cpp:411] rpn/output_rpn_relu/3x3_0_split -> rpn/output_rpn_relu/3x3_0_split_1
I1010 13:29:21.844101 42139 net.cpp:150] Setting up rpn/output_rpn_relu/3x3_0_split
I1010 13:29:21.844115 42139 net.cpp:157] Top shape: 1 512 63 63 (2032128)
I1010 13:29:21.844117 42139 net.cpp:157] Top shape: 1 512 63 63 (2032128)
I1010 13:29:21.844120 42139 net.cpp:165] Memory required for data: 2365670740
I1010 13:29:21.844121 42139 layer_factory.hpp:77] Creating layer rpn_cls_score
I1010 13:29:21.844130 42139 net.cpp:106] Creating Layer rpn_cls_score
I1010 13:29:21.844136 42139 net.cpp:454] rpn_cls_score <- rpn/output_rpn_relu/3x3_0_split_0
I1010 13:29:21.844144 42139 net.cpp:411] rpn_cls_score -> rpn_cls_score
I1010 13:29:21.844508 42139 net.cpp:150] Setting up rpn_cls_score
I1010 13:29:21.844516 42139 net.cpp:157] Top shape: 1 18 63 63 (71442)
I1010 13:29:21.844518 42139 net.cpp:165] Memory required for data: 2365956508
I1010 13:29:21.844524 42139 layer_factory.hpp:77] Creating layer rpn_cls_score_rpn_cls_score_0_split
I1010 13:29:21.844529 42139 net.cpp:106] Creating Layer rpn_cls_score_rpn_cls_score_0_split
I1010 13:29:21.844532 42139 net.cpp:454] rpn_cls_score_rpn_cls_score_0_split <- rpn_cls_score
I1010 13:29:21.844539 42139 net.cpp:411] rpn_cls_score_rpn_cls_score_0_split -> rpn_cls_score_rpn_cls_score_0_split_0
I1010 13:29:21.844568 42139 net.cpp:411] rpn_cls_score_rpn_cls_score_0_split -> rpn_cls_score_rpn_cls_score_0_split_1
I1010 13:29:21.844604 42139 net.cpp:150] Setting up rpn_cls_score_rpn_cls_score_0_split
I1010 13:29:21.844612 42139 net.cpp:157] Top shape: 1 18 63 63 (71442)
I1010 13:29:21.844615 42139 net.cpp:157] Top shape: 1 18 63 63 (71442)
I1010 13:29:21.844617 42139 net.cpp:165] Memory required for data: 2366528044
I1010 13:29:21.844620 42139 layer_factory.hpp:77] Creating layer rpn_bbox_pred
I1010 13:29:21.844630 42139 net.cpp:106] Creating Layer rpn_bbox_pred
I1010 13:29:21.844633 42139 net.cpp:454] rpn_bbox_pred <- rpn/output_rpn_relu/3x3_0_split_1
I1010 13:29:21.844641 42139 net.cpp:411] rpn_bbox_pred -> rpn_bbox_pred
I1010 13:29:21.845141 42139 net.cpp:150] Setting up rpn_bbox_pred
I1010 13:29:21.845151 42139 net.cpp:157] Top shape: 1 36 63 63 (142884)
I1010 13:29:21.845154 42139 net.cpp:165] Memory required for data: 2367099580
I1010 13:29:21.845158 42139 layer_factory.hpp:77] Creating layer rpn_bbox_pred_rpn_bbox_pred_0_split
I1010 13:29:21.845165 42139 net.cpp:106] Creating Layer rpn_bbox_pred_rpn_bbox_pred_0_split
I1010 13:29:21.845167 42139 net.cpp:454] rpn_bbox_pred_rpn_bbox_pred_0_split <- rpn_bbox_pred
I1010 13:29:21.845186 42139 net.cpp:411] rpn_bbox_pred_rpn_bbox_pred_0_split -> rpn_bbox_pred_rpn_bbox_pred_0_split_0
I1010 13:29:21.845193 42139 net.cpp:411] rpn_bbox_pred_rpn_bbox_pred_0_split -> rpn_bbox_pred_rpn_bbox_pred_0_split_1
I1010 13:29:21.845230 42139 net.cpp:150] Setting up rpn_bbox_pred_rpn_bbox_pred_0_split
I1010 13:29:21.845249 42139 net.cpp:157] Top shape: 1 36 63 63 (142884)
I1010 13:29:21.845253 42139 net.cpp:157] Top shape: 1 36 63 63 (142884)
I1010 13:29:21.845255 42139 net.cpp:165] Memory required for data: 2368242652
I1010 13:29:21.845270 42139 layer_factory.hpp:77] Creating layer rpn_cls_score_reshape
I1010 13:29:21.845278 42139 net.cpp:106] Creating Layer rpn_cls_score_reshape
I1010 13:29:21.845283 42139 net.cpp:454] rpn_cls_score_reshape <- rpn_cls_score_rpn_cls_score_0_split_0
I1010 13:29:21.845288 42139 net.cpp:411] rpn_cls_score_reshape -> rpn_cls_score_reshape
I1010 13:29:21.845319 42139 net.cpp:150] Setting up rpn_cls_score_reshape
I1010 13:29:21.845326 42139 net.cpp:157] Top shape: 1 2 567 63 (71442)
I1010 13:29:21.845329 42139 net.cpp:165] Memory required for data: 2368528420
I1010 13:29:21.845331 42139 layer_factory.hpp:77] Creating layer rpn_cls_score_reshape_rpn_cls_score_reshape_0_split
I1010 13:29:21.845338 42139 net.cpp:106] Creating Layer rpn_cls_score_reshape_rpn_cls_score_reshape_0_split
I1010 13:29:21.845341 42139 net.cpp:454] rpn_cls_score_reshape_rpn_cls_score_reshape_0_split <- rpn_cls_score_reshape
I1010 13:29:21.845346 42139 net.cpp:411] rpn_cls_score_reshape_rpn_cls_score_reshape_0_split -> rpn_cls_score_reshape_rpn_cls_score_reshape_0_split_0
I1010 13:29:21.845352 42139 net.cpp:411] rpn_cls_score_reshape_rpn_cls_score_reshape_0_split -> rpn_cls_score_reshape_rpn_cls_score_reshape_0_split_1
I1010 13:29:21.845389 42139 net.cpp:150] Setting up rpn_cls_score_reshape_rpn_cls_score_reshape_0_split
I1010 13:29:21.845397 42139 net.cpp:157] Top shape: 1 2 567 63 (71442)
I1010 13:29:21.845401 42139 net.cpp:157] Top shape: 1 2 567 63 (71442)
I1010 13:29:21.845402 42139 net.cpp:165] Memory required for data: 2369099956
I1010 13:29:21.845404 42139 layer_factory.hpp:77] Creating layer rpn-data
I1010 13:29:21.846155 42139 net.cpp:106] Creating Layer rpn-data
I1010 13:29:21.846168 42139 net.cpp:454] rpn-data <- rpn_cls_score_rpn_cls_score_0_split_1
I1010 13:29:21.846174 42139 net.cpp:454] rpn-data <- gt_boxes_input-data_2_split_0
I1010 13:29:21.846179 42139 net.cpp:454] rpn-data <- im_info_input-data_1_split_0
I1010 13:29:21.846181 42139 net.cpp:454] rpn-data <- data_input-data_0_split_1
I1010 13:29:21.846186 42139 net.cpp:411] rpn-data -> rpn_labels
I1010 13:29:21.846207 42139 net.cpp:411] rpn-data -> rpn_bbox_targets
I1010 13:29:21.846215 42139 net.cpp:411] rpn-data -> rpn_bbox_inside_weights
I1010 13:29:21.846221 42139 net.cpp:411] rpn-data -> rpn_bbox_outside_weights
I1010 13:29:21.847818 42139 net.cpp:150] Setting up rpn-data
I1010 13:29:21.847836 42139 net.cpp:157] Top shape: 1 1 567 63 (35721)
I1010 13:29:21.847841 42139 net.cpp:157] Top shape: 1 36 63 63 (142884)
I1010 13:29:21.847842 42139 net.cpp:157] Top shape: 1 36 63 63 (142884)
I1010 13:29:21.847846 42139 net.cpp:157] Top shape: 1 36 63 63 (142884)
I1010 13:29:21.847847 42139 net.cpp:165] Memory required for data: 2370957448
I1010 13:29:21.847851 42139 layer_factory.hpp:77] Creating layer rpn_loss_cls
I1010 13:29:21.847872 42139 net.cpp:106] Creating Layer rpn_loss_cls
I1010 13:29:21.847875 42139 net.cpp:454] rpn_loss_cls <- rpn_cls_score_reshape_rpn_cls_score_reshape_0_split_0
I1010 13:29:21.847880 42139 net.cpp:454] rpn_loss_cls <- rpn_labels
…
I1010 13:29:21.849772 42139 net.cpp:157] Top shape: (1)
I1010 13:29:21.849774 42139 net.cpp:160]     with loss weight 1
I1010 13:29:21.849781 42139 net.cpp:165] Memory required for data: 2370957456
I1010 13:29:21.849784 42139 layer_factory.hpp:77] Creating layer rpn_cls_prob
I1010 13:29:21.849789 42139 net.cpp:106] Creating Layer rpn_cls_prob
I1010 13:29:21.849793 42139 net.cpp:454] rpn_cls_prob <- rpn_cls_score_reshape_rpn_cls_score_reshape_0_split_1
I1010 13:29:21.849813 42139 net.cpp:411] rpn_cls_prob -> rpn_cls_prob
I1010 13:29:21.849879 42139 net.cpp:150] Setting up rpn_cls_prob
I1010 13:29:21.849887 42139 net.cpp:157] Top shape: 1 2 567 63 (71442)
I1010 13:29:21.849889 42139 net.cpp:165] Memory required for data: 2371243224
I1010 13:29:21.849892 42139 layer_factory.hpp:77] Creating layer rpn_cls_prob_reshape
I1010 13:29:21.849898 42139 net.cpp:106] Creating Layer rpn_cls_prob_reshape
I1010 13:29:21.849900 42139 net.cpp:454] rpn_cls_prob_reshape <- rpn_cls_prob
I1010 13:29:21.849905 42139 net.cpp:411] rpn_cls_prob_reshape -> rpn_cls_prob_reshape
I1010 13:29:21.849931 42139 net.cpp:150] Setting up rpn_cls_prob_reshape
I1010 13:29:21.849938 42139 net.cpp:157] Top shape: 1 18 63 63 (71442)
I1010 13:29:21.849941 42139 net.cpp:165] Memory required for data: 2371528992
I1010 13:29:21.849943 42139 layer_factory.hpp:77] Creating layer proposal
I1010 13:29:21.851532 42139 net.cpp:106] Creating Layer proposal
I1010 13:29:21.851547 42139 net.cpp:454] proposal <- rpn_cls_prob_reshape
I1010 13:29:21.851552 42139 net.cpp:454] proposal <- rpn_bbox_pred_rpn_bbox_pred_0_split_1
I1010 13:29:21.851555 42139 net.cpp:454] proposal <- im_info_input-data_1_split_1
I1010 13:29:21.851560 42139 net.cpp:411] proposal -> rpn_rois
I1010 13:29:21.852248 42139 net.cpp:150] Setting up proposal
I1010 13:29:21.852263 42139 net.cpp:157] Top shape: 1 5 (5)
I1010 13:29:21.852279 42139 net.cpp:165] Memory required for data: 2371529012
I1010 13:29:21.852283 42139 layer_factory.hpp:77] Creating layer roi-data
I1010 13:29:21.852484 42139 net.cpp:106] Creating Layer roi-data
I1010 13:29:21.852495 42139 net.cpp:454] roi-data <- rpn_rois
I1010 13:29:21.852500 42139 net.cpp:454] roi-data <- gt_boxes_input-data_2_split_1
I1010 13:29:21.852506 42139 net.cpp:411] roi-data -> rois
I1010 13:29:21.852527 42139 net.cpp:411] roi-data -> labels
I1010 13:29:21.852537 42139 net.cpp:411] roi-data -> bbox_targets
I1010 13:29:21.852543 42139 net.cpp:411] roi-data -> bbox_inside_weights
I1010 13:29:21.852548 42139 net.cpp:411] roi-data -> bbox_outside_weights
I1010 13:29:21.853022 42139 net.cpp:150] Setting up roi-data
I1010 13:29:21.853049 42139 net.cpp:157] Top shape: 1 5 (5)
I1010 13:29:21.853054 42139 net.cpp:157] Top shape: 1 1 (1)
I1010 13:29:21.853055 42139 net.cpp:157] Top shape: 1 8 (8)
I1010 13:29:21.853058 42139 net.cpp:157] Top shape: 1 8 (8)
I1010 13:29:21.853060 42139 net.cpp:157] Top shape: 1 8 (8)
I1010 13:29:21.853075 42139 net.cpp:165] Memory required for data: 2371529132
I1010 13:29:21.853078 42139 layer_factory.hpp:77] Creating layer labels_roi-data_1_split
I1010 13:29:21.853085 42139 net.cpp:106] Creating Layer labels_roi-data_1_split
I1010 13:29:21.853087 42139 net.cpp:454] labels_roi-data_1_split <- labels
I1010 13:29:21.853093 42139 net.cpp:411] labels_roi-data_1_split -> labels_roi-data_1_split_0
I1010 13:29:21.853101 42139 net.cpp:411] labels_roi-data_1_split -> labels_roi-data_1_split_1
I1010 13:29:21.853148 42139 net.cpp:150] Setting up labels_roi-data_1_split
I1010 13:29:21.853157 42139 net.cpp:157] Top shape: 1 1 (1)
I1010 13:29:21.853159 42139 net.cpp:157] Top shape: 1 1 (1)
I1010 13:29:21.853162 42139 net.cpp:165] Memory required for data: 2371529140
I1010 13:29:21.853164 42139 layer_factory.hpp:77] Creating layer roi_pool5
I1010 13:29:21.853170 42139 net.cpp:106] Creating Layer roi_pool5
I1010 13:29:21.853173 42139 net.cpp:454] roi_pool5 <- conv5_3_relu5_3_0_split_1
I1010 13:29:21.853178 42139 net.cpp:454] roi_pool5 <- rois
I1010 13:29:21.853181 42139 net.cpp:411] roi_pool5 -> pool5
I1010 13:29:21.853188 42139 roi_pooling_layer.cpp:30] Spatial scale: 0.0625
I1010 13:29:21.853229 42139 net.cpp:150] Setting up roi_pool5
I1010 13:29:21.853236 42139 net.cpp:157] Top shape: 1 512 7 7 (25088)
I1010 13:29:21.853238 42139 net.cpp:165] Memory required for data: 2371629492
I1010 13:29:21.853240 42139 layer_factory.hpp:77] Creating layer fc6
I1010 13:29:21.853247 42139 net.cpp:106] Creating Layer fc6
I1010 13:29:21.853250 42139 net.cpp:454] fc6 <- pool5
I1010 13:29:21.853255 42139 net.cpp:411] fc6 -> fc6
I1010 13:29:22.131150 42139 net.cpp:150] Setting up fc6
I1010 13:29:22.131217 42139 net.cpp:157] Top shape: 1 4096 (4096)
I1010 13:29:22.131220 42139 net.cpp:165] Memory required for data: 2371645876
I1010 13:29:22.131245 42139 layer_factory.hpp:77] Creating layer relu6
I1010 13:29:22.131266 42139 net.cpp:106] Creating Layer relu6
I1010 13:29:22.131271 42139 net.cpp:454] relu6 <- fc6
I1010 13:29:22.131278 42139 net.cpp:397] relu6 -> fc6 (in-place)
I1010 13:29:22.131290 42139 net.cpp:150] Setting up relu6
I1010 13:29:22.131294 42139 net.cpp:157] Top shape: 1 4096 (4096)
I1010 13:29:22.131295 42139 net.cpp:165] Memory required for data: 2371662260
I1010 13:29:22.131299 42139 layer_factory.hpp:77] Creating layer drop6
I1010 13:29:22.131304 42139 net.cpp:106] Creating Layer drop6
I1010 13:29:22.131306 42139 net.cpp:454] drop6 <- fc6
I1010 13:29:22.131311 42139 net.cpp:397] drop6 -> fc6 (in-place)
I1010 13:29:22.131340 42139 net.cpp:150] Setting up drop6
I1010 13:29:22.131347 42139 net.cpp:157] Top shape: 1 4096 (4096)
I1010 13:29:22.131350 42139 net.cpp:165] Memory required for data: 2371678644
I1010 13:29:22.131352 42139 layer_factory.hpp:77] Creating layer fc7
I1010 13:29:22.131361 42139 net.cpp:106] Creating Layer fc7
I1010 13:29:22.131363 42139 net.cpp:454] fc7 <- fc6
I1010 13:29:22.131368 42139 net.cpp:411] fc7 -> fc7
I1010 13:29:22.176293 42139 net.cpp:150] Setting up fc7
I1010 13:29:22.176349 42139 net.cpp:157] Top shape: 1 4096 (4096)
I1010 13:29:22.176352 42139 net.cpp:165] Memory required for data: 2371695028
I1010 13:29:22.176365 42139 layer_factory.hpp:77] Creating layer relu7
I1010 13:29:22.176378 42139 net.cpp:106] Creating Layer relu7
I1010 13:29:22.176381 42139 net.cpp:454] relu7 <- fc7
I1010 13:29:22.176388 42139 net.cpp:397] relu7 -> fc7 (in-place)
I1010 13:29:22.176398 42139 net.cpp:150] Setting up relu7
I1010 13:29:22.176400 42139 net.cpp:157] Top shape: 1 4096 (4096)
I1010 13:29:22.176403 42139 net.cpp:165] Memory required for data: 2371711412
I1010 13:29:22.176417 42139 layer_factory.hpp:77] Creating layer drop7
I1010 13:29:22.176426 42139 net.cpp:106] Creating Layer drop7
I1010 13:29:22.176429 42139 net.cpp:454] drop7 <- fc7
I1010 13:29:22.176434 42139 net.cpp:397] drop7 -> fc7 (in-place)
I1010 13:29:22.176461 42139 net.cpp:150] Setting up drop7
I1010 13:29:22.176470 42139 net.cpp:157] Top shape: 1 4096 (4096)
I1010 13:29:22.176471 42139 net.cpp:165] Memory required for data: 2371727796
I1010 13:29:22.176475 42139 layer_factory.hpp:77] Creating layer fc7_drop7_0_split
I1010 13:29:22.176479 42139 net.cpp:106] Creating Layer fc7_drop7_0_split
I1010 13:29:22.176482 42139 net.cpp:454] fc7_drop7_0_split <- fc7
I1010 13:29:22.176489 42139 net.cpp:411] fc7_drop7_0_split -> fc7_drop7_0_split_0
I1010 13:29:22.176496 42139 net.cpp:411] fc7_drop7_0_split -> fc7_drop7_0_split_1
I1010 13:29:22.176535 42139 net.cpp:150] Setting up fc7_drop7_0_split
I1010 13:29:22.176542 42139 net.cpp:157] Top shape: 1 4096 (4096)
I1010 13:29:22.176545 42139 net.cpp:157] Top shape: 1 4096 (4096)
I1010 13:29:22.176548 42139 net.cpp:165] Memory required for data: 2371760564
I1010 13:29:22.176549 42139 layer_factory.hpp:77] Creating layer cls_score
I1010 13:29:22.176559 42139 net.cpp:106] Creating Layer cls_score
I1010 13:29:22.176565 42139 net.cpp:454] cls_score <- fc7_drop7_0_split_0
I1010 13:29:22.176571 42139 net.cpp:411] cls_score -> cls_score
I1010 13:29:22.176774 42139 net.cpp:150] Setting up cls_score
I1010 13:29:22.176784 42139 net.cpp:157] Top shape: 1 2 (2)
I1010 13:29:22.176785 42139 net.cpp:165] Memory required for data: 2371760572
I1010 13:29:22.176790 42139 layer_factory.hpp:77] Creating layer cls_score_cls_score_0_split
I1010 13:29:22.176795 42139 net.cpp:106] Creating Layer cls_score_cls_score_0_split
I1010 13:29:22.176798 42139 net.cpp:454] cls_score_cls_score_0_split <- cls_score
I1010 13:29:22.176803 42139 net.cpp:411] cls_score_cls_score_0_split -> cls_score_cls_score_0_split_0
I1010 13:29:22.176813 42139 net.cpp:411] cls_score_cls_score_0_split -> cls_score_cls_score_0_split_1
I1010 13:29:22.176844 42139 net.cpp:150] Setting up cls_score_cls_score_0_split
I1010 13:29:22.176851 42139 net.cpp:157] Top shape: 1 2 (2)
I1010 13:29:22.176854 42139 net.cpp:157] Top shape: 1 2 (2)
I1010 13:29:22.176856 42139 net.cpp:165] Memory required for data: 2371760588
I1010 13:29:22.176858 42139 layer_factory.hpp:77] Creating layer bbox_pred
I1010 13:29:22.176867 42139 net.cpp:106] Creating Layer bbox_pred
I1010 13:29:22.176869 42139 net.cpp:454] bbox_pred <- fc7_drop7_0_split_1
I1010 13:29:22.176874 42139 net.cpp:411] bbox_pred -> bbox_pred
I1010 13:29:22.178129 42139 net.cpp:150] Setting up bbox_pred
I1010 13:29:22.178155 42139 net.cpp:157] Top shape: 1 8 (8)
I1010 13:29:22.178158 42139 net.cpp:165] Memory required for data: 2371760620
I1010 13:29:22.178165 42139 layer_factory.hpp:77] Creating layer loss_cls
I1010 13:29:22.178174 42139 net.cpp:106] Creating Layer loss_cls
I1010 13:29:22.178177 42139 net.cpp:454] loss_cls <- cls_score_cls_score_0_split_0
I1010 13:29:22.178182 42139 net.cpp:454] loss_cls <- labels_roi-data_1_split_0
I1010 13:29:22.178186 42139 net.cpp:411] loss_cls -> loss_cls
…
