…
snapshot_prefix: "vgg16_faster_rcnn_map"
average_loss: 100
iter_size: 2
I1106 14:12:56.397403 31365 solver.cpp:81] Creating training net from train_net file: models/map/VGG16/faster_rcnn_end2end/train.prototxt
I1106 14:12:56.398190 31365 net.cpp:49] Initializing net from parameters: 
name: "VGG_ILSVRC_16_layers"
state {
  phase: TRAIN
}
layer {
  name: "input-data"
  type: "Python"
  top: "data"
  top: "im_info"
  top: "gt_boxes"
  python_param {
    module: "roi_data_layer.layer"
    layer: "RoIDataLayer"
    param_str: "\'num_classes\': 2"
  }
}
layer {
  name: "conv1_1"
  type: "Convolution"
  bottom: "data"
  top: "conv1_1"
  param {
    lr_mult: 0
    decay_mult: 0
  }
  param {
    lr_mult: 0
    decay_mult: 0
  }
  convolution_param {
    num_output: 64
    pad: 1
    kernel_size: 3
  }
}
layer {
  name: "relu1_1"
  type: "ReLU"
  bottom: "conv1_1"
  top: "conv1_1"
}
layer {
  name: "conv1_2"
  type: "Convolution"
  bottom: "conv1_1"
  top: "conv1_2"
  param {
    lr_mult: 0
    decay_mult: 0
  }
  param {
    lr_mult: 0
    decay_mult: 0
  }
  convolution_param {
    num_output: 64
    pad: 1
    kernel_size: 3
  }
}
layer {
  name: "relu1_2"
  type: "ReLU"
  bottom: "conv1_2"
  top: "conv1_2"
}
layer {
  name: "pool1"
  type: "Pooling"
  bottom: "conv1_2"
  top: "pool1"
  pooling_param {
    pool: MAX
    kernel_size: 2
    stride: 2
  }
}
layer {
  name: "conv2_1"
  type: "Convolution"
  bottom: "pool1"
  top: "conv2_1"
  param {
    lr_mult: 0
    decay_mult: 0
  }
  param {
    lr_mult: 0
    decay_mult: 0
  }
  convolution_param {
    num_output: 128
    pad: 1
    kernel_size: 3
  }
}
layer {
  name: "relu2_1"
  type: "ReLU"
  bottom: "conv2_1"
  top: "conv2_1"
}
layer {
  name: "conv2_2"
  type: "Convolution"
  bottom: "conv2_1"
  top: "conv2_2"
  param {
    lr_mult: 0
    decay_mult: 0
  }
  param {
    lr_mult: 0
    decay_mult: 0
  }
  convolution_param {
    num_output: 128
    pad: 1
    kernel_size: 3
  }
}
layer {
  name: "relu2_2"
  type: "ReLU"
  bottom: "conv2_2"
  top: "conv2_2"
}
layer {
  name: "pool2"
  type: "Pooling"
  bottom: "conv2_2"
  top: "pool2"
  pooling_param {
    pool: MAX
    kernel_size: 2
    stride: 2
  }
}
layer {
  name: "conv3_1"
  type: "Convolution"
  bottom: "pool2"
  top: "conv3_1"
  param {
    lr_mult: 1
  }
  param {
    lr_mult: 2
  }
  convolution_param {
    num_output: 256
    pad: 1
    kernel_size: 3
  }
}
layer {
  name: "relu3_1"
  type: "ReLU"
  bottom: "conv3_1"
  top: "conv3_1"
}
layer {
  name: "conv3_2"
  type: "Convolution"
  bottom: "conv3_1"
  top: "conv3_2"
  param {
    lr_mult: 1
  }
  param {
    lr_mult: 2
  }
  convolution_param {
    num_output: 256
    pad: 1
    kernel_size: 3
  }
}
layer {
  name: "relu3_2"
  type: "ReLU"
  bottom: "conv3_2"
  top: "conv3_2"
}
layer {
  name: "conv3_3"
  type: "Convolution"
  bottom: "conv3_2"
  top: "conv3_3"
  param {
    lr_mult: 1
  }
  param {
    lr_mult: 2
  }
  convolution_param {
    num_output: 256
    pad: 1
    kernel_size: 3
  }
}
layer {
  name: "relu3_3"
  type: "ReLU"
  bottom: "conv3_3"
  top: "conv3_3"
}
layer {
  name: "pool3"
  type: "Pooling"
  bottom: "conv3_3"
  top: "pool3"
  pooling_param {
    pool: MAX
    kernel_size: 2
    stride: 2
  }
}
layer {
  name: "conv4_1"
  type: "Convolution"
  bottom: "pool3"
  top: "conv4_1"
  param {
    lr_mult: 1
  }
  param {
    lr_mult: 2
  }
  convolution_param {
    num_output: 512
    pad: 1
    kernel_size: 3
  }
}
layer {
  name: "relu4_1"
  type: "ReLU"
  bottom: "conv4_1"
  top: "conv4_1"
}
layer {
  name: "conv4_2"
  type: "Convolution"
  bottom: "conv4_1"
  top: "conv4_2"
  param {
    lr_mult: 1
  }
  param {
    lr_mult: 2
  }
  convolution_param {
    num_output: 512
    pad: 1
    kernel_size: 3
  }
}
layer {
  name: "relu4_2"
  type: "ReLU"
  bottom: "conv4_2"
  top: "conv4_2"
}
layer {
  name: "conv4_3"
  type: "Convolution"
  bottom: "conv4_2"
  top: "conv4_3"
  param {
    lr_mult: 1
  }
  param {
    lr_mult: 2
  }
  convolution_param {
    num_output: 512
    pad: 1
    kernel_size: 3
  }
}
layer {
  name: "relu4_3"
  type: "ReLU"
  bottom: "conv4_3"
  top: "conv4_3"
}
layer {
  name: "pool4"
  type: "Pooling"
  bottom: "conv4_3"
  top: "pool4"
  pooling_param {
    pool: MAX
    kernel_size: 2
    stride: 2
  }
}
layer {
  name: "conv5_1"
  type: "Convolution"
  bottom: "pool4"
  top: "conv5_1"
  param {
    lr_mult: 1
  }
  param {
    lr_mult: 2
  }
  convolution_param {
    num_output: 512
    pad: 1
    kernel_size: 3
  }
}
layer {
  name: "relu5_1"
  type: "ReLU"
  bottom: "conv5_1"
  top: "conv5_1"
}
layer {
  name: "conv5_2"
  type: "Convolution"
  bottom: "conv5_1"
  top: "conv5_2"
  param {
    lr_mult: 1
  }
  param {
    lr_mult: 2
  }
  convolution_param {
    num_output: 512
    pad: 1
    kernel_size: 3
  }
}
layer {
  name: "relu5_2"
  type: "ReLU"
  bottom: "conv5_2"
  top: "conv5_2"
}
layer {
  name: "conv5_3"
  type: "Convolution"
  bottom: "conv5_2"
  top: "conv5_3"
  param {
    lr_mult: 1
  }
  param {
    lr_mult: 2
  }
  convolution_param {
    num_output: 512
    pad: 1
    kernel_size: 3
  }
}
layer {
  name: "relu5_3"
  type: "ReLU"
  bottom: "conv5_3"
  top: "conv5_3"
}
layer {
  name: "rpn_conv/3x3"
  type: "Convolution"
  bottom: "conv5_3"
  top: "rpn/output"
  param {
    lr_mult: 1
  }
  param {
    lr_mult: 2
  }
  convolution_param {
    num_output: 512
    pad: 1
    kernel_size: 3
    stride: 1
    weight_filler {
      type: "gaussian"
      std: 0.01
    }
    bias_filler {
      type: "constant"
      value: 0
    }
  }
}
layer {
  name: "rpn_relu/3x3"
  type: "ReLU"
  bottom: "rpn/output"
  top: "rpn/output"
}
layer {
  name: "rpn_cls_score"
  type: "Convolution"
  bottom: "rpn/output"
  top: "rpn_cls_score"
  param {
    lr_mult: 1
  }
  param {
    lr_mult: 2
  }
  convolution_param {
    num_output: 18
    pad: 0
    kernel_size: 1
    stride: 1
    weight_filler {
      type: "gaussian"
      std: 0.01
    }
    bias_filler {
      type: "constant"
      value: 0
    }
  }
}
layer {
  name: "rpn_bbox_pred"
  type: "Convolution"
  bottom: "rpn/output"
  top: "rpn_bbox_pred"
  param {
    lr_mult: 1
  }
  param {
    lr_mult: 2
  }
  convolution_param {
    num_output: 36
    pad: 0
    kernel_size: 1
    stride: 1
    weight_filler {
      type: "gaussian"
      std: 0.01
    }
    bias_filler {
      type: "constant"
      value: 0
    }
  }
}
layer {
  name: "rpn_cls_score_reshape"
  type: "Reshape"
  bottom: "rpn_cls_score"
  top: "rpn_cls_score_reshape"
  reshape_param {
    shape {
      dim: 0
      dim: 2
      dim: -1
      dim: 0
    }
  }
}
layer {
  name: "rpn-data"
  type: "Python"
  bottom: "rpn_cls_score"
  bottom: "gt_boxes"
  bottom: "im_info"
  bottom: "data"
  top: "rpn_labels"
  top: "rpn_bbox_targets"
  top: "rpn_bbox_inside_weights"
  top: "rpn_bbox_outside_weights"
  python_param {
    module: "rpn.anchor_target_layer"
    layer: "AnchorTargetLayer"
    param_str: "\'feat_stride\': 16"
  }
}
layer {
  name: "rpn_loss_cls"
  type: "SoftmaxWithLoss"
  bottom: "rpn_cls_score_reshape"
  bottom: "rpn_labels"
  top: "rpn_cls_loss"
  loss_weight: 1
  propagate_down: true
  propagate_down: false
  loss_param {
    ignore_label: -1
    normalize: true
  }
}
layer {
  name: "rpn_loss_bbox"
  type: "SmoothL1Loss"
  bottom: "rpn_bbox_pred"
  bottom: "rpn_bbox_targets"
  bottom: "rpn_bbox_inside_weights"
  bottom: "rpn_bbox_outside_weights"
  top: "rpn_loss_bbox"
  loss_weight: 1
  smooth_l1_loss_param {
    sigma: 3
  }
}
layer {
  name: "rpn_cls_prob"
  type: "Softmax"
  bottom: "rpn_cls_score_reshape"
  top: "rpn_cls_prob"
}
layer {
  name: "rpn_cls_prob_reshape"
  type: "Reshape"
  bottom: "rpn_cls_prob"
  top: "rpn_cls_prob_reshape"
  reshape_param {
    shape {
      dim: 0
      dim: 18
      dim: -1
      dim: 0
    }
  }
}
layer {
  name: "proposal"
  type: "Python"
  bottom: "rpn_cls_prob_reshape"
  bottom: "rpn_bbox_pred"
  bottom: "im_info"
  top: "rpn_rois"
  python_param {
    module: "rpn.proposal_layer"
    layer: "ProposalLayer"
    param_str: "\'feat_stride\': 16"
  }
}
layer {
  name: "roi-data"
  type: "Python"
  bottom: "rpn_rois"
  bottom: "gt_boxes"
  top: "rois"
  top: "labels"
  top: "bbox_targets"
  top: "bbox_inside_weights"
  top: "bbox_outside_weights"
  python_param {
    module: "rpn.proposal_target_layer"
    layer: "ProposalTargetLayer"
    param_str: "\'num_classes\': 2"
  }
}
layer {
  name: "roi_pool5"
  type: "ROIPooling"
  bottom: "conv5_3"
  bottom: "rois"
  top: "pool5"
  roi_pooling_param {
    pooled_h: 7
    pooled_w: 7
    spatial_scale: 0.0625
  }
}
layer {
  name: "fc6"
  type: "InnerProduct"
  bottom: "pool5"
  top: "fc6"
  param {
    lr_mult: 1
  }
  param {
    lr_mult: 2
  }
  inner_product_param {
    num_output: 4096
  }
}
layer {
  name: "relu6"
  type: "ReLU"
  bottom: "fc6"
  top: "fc6"
}
layer {
  name: "drop6"
  type: "Dropout"
  bottom: "fc6"
  top: "fc6"
  dropout_param {
    dropout_ratio: 0.5
  }
}
layer {
  name: "fc7"
  type: "InnerProduct"
  bottom: "fc6"
  top: "fc7"
  param {
    lr_mult: 1
  }
  param {
    lr_mult: 2
  }
  inner_product_param {
    num_output: 4096
  }
}
layer {
  name: "relu7"
  type: "ReLU"
  bottom: "fc7"
  top: "fc7"
}
layer {
  name: "drop7"
  type: "Dropout"
  bottom: "fc7"
  top: "fc7"
  dropout_param {
    dropout_ratio: 0.5
  }
}
layer {
  name: "cls_score"
  type: "InnerProduct"
  bottom: "fc7"
  top: "cls_score"
  param {
    lr_mult: 1
  }
  param {
    lr_mult: 2
  }
  inner_product_param {
    num_output: 2
    weight_filler {
      type: "gaussian"
      std: 0.01
    }
    bias_filler {
      type: "constant"
      value: 0
    }
  }
}
layer {
  name: "bbox_pred"
  type: "InnerProduct"
  bottom: "fc7"
  top: "bbox_pred"
  param {
    lr_mult: 1
  }
  param {
    lr_mult: 2
  }
  inner_product_param {
    num_output: 8
    weight_filler {
      type: "gaussian"
      std: 0.001
    }
    bias_filler {
      type: "constant"
      value: 0
    }
  }
}
layer {
  name: "loss_cls"
  type: "SoftmaxWithLoss"
  bottom: "cls_score"
  bottom: "labels"
  top: "loss_cls"
  loss_weight: 1
  propagate_down: true
  propagate_down: false
}
layer {
  name: "loss_bbox"
  type: "SmoothL1Loss"
  bottom: "bbox_pred"
  bottom: "bbox_targets"
  bottom: "bbox_inside_weights"
  bottom: "bbox_outside_weights"
  top: "loss_bbox"
  loss_weight: 1
}
layer {
  name: "accuracy"
  type: "Accuracy"
  bottom: "cls_score"
  bottom: "labels"
  top: "accuracy"
}
I1106 14:12:56.398519 31365 layer_factory.hpp:77] Creating layer input-data
I1106 14:12:56.399371 31365 net.cpp:106] Creating Layer input-data
I1106 14:12:56.399381 31365 net.cpp:411] input-data -> data
I1106 14:12:56.399391 31365 net.cpp:411] input-data -> im_info
I1106 14:12:56.399397 31365 net.cpp:411] input-data -> gt_boxes
I1106 14:12:56.412621 31365 net.cpp:150] Setting up input-data
I1106 14:12:56.412650 31365 net.cpp:157] Top shape: 1 3 1000 1000 (3000000)
I1106 14:12:56.412654 31365 net.cpp:157] Top shape: 1 3 (3)
I1106 14:12:56.412658 31365 net.cpp:157] Top shape: 1 4 (4)
I1106 14:12:56.412660 31365 net.cpp:165] Memory required for data: 12000028
I1106 14:12:56.412664 31365 layer_factory.hpp:77] Creating layer data_input-data_0_split
I1106 14:12:56.412675 31365 net.cpp:106] Creating Layer data_input-data_0_split
I1106 14:12:56.412679 31365 net.cpp:454] data_input-data_0_split <- data
I1106 14:12:56.412685 31365 net.cpp:411] data_input-data_0_split -> data_input-data_0_split_0
I1106 14:12:56.412693 31365 net.cpp:411] data_input-data_0_split -> data_input-data_0_split_1
I1106 14:12:56.412729 31365 net.cpp:150] Setting up data_input-data_0_split
I1106 14:12:56.412737 31365 net.cpp:157] Top shape: 1 3 1000 1000 (3000000)
I1106 14:12:56.412741 31365 net.cpp:157] Top shape: 1 3 1000 1000 (3000000)
I1106 14:12:56.412744 31365 net.cpp:165] Memory required for data: 36000028
I1106 14:12:56.412746 31365 layer_factory.hpp:77] Creating layer im_info_input-data_1_split
I1106 14:12:56.412753 31365 net.cpp:106] Creating Layer im_info_input-data_1_split
I1106 14:12:56.412756 31365 net.cpp:454] im_info_input-data_1_split <- im_info
I1106 14:12:56.412761 31365 net.cpp:411] im_info_input-data_1_split -> im_info_input-data_1_split_0
I1106 14:12:56.412766 31365 net.cpp:411] im_info_input-data_1_split -> im_info_input-data_1_split_1
I1106 14:12:56.412796 31365 net.cpp:150] Setting up im_info_input-data_1_split
I1106 14:12:56.412802 31365 net.cpp:157] Top shape: 1 3 (3)
I1106 14:12:56.412806 31365 net.cpp:157] Top shape: 1 3 (3)
I1106 14:12:56.412807 31365 net.cpp:165] Memory required for data: 36000052
I1106 14:12:56.412811 31365 layer_factory.hpp:77] Creating layer gt_boxes_input-data_2_split
I1106 14:12:56.412814 31365 net.cpp:106] Creating Layer gt_boxes_input-data_2_split
I1106 14:12:56.412817 31365 net.cpp:454] gt_boxes_input-data_2_split <- gt_boxes
I1106 14:12:56.412824 31365 net.cpp:411] gt_boxes_input-data_2_split -> gt_boxes_input-data_2_split_0
I1106 14:12:56.412829 31365 net.cpp:411] gt_boxes_input-data_2_split -> gt_boxes_input-data_2_split_1
I1106 14:12:56.412860 31365 net.cpp:150] Setting up gt_boxes_input-data_2_split
I1106 14:12:56.412866 31365 net.cpp:157] Top shape: 1 4 (4)
I1106 14:12:56.412870 31365 net.cpp:157] Top shape: 1 4 (4)
I1106 14:12:56.412873 31365 net.cpp:165] Memory required for data: 36000084
I1106 14:12:56.412874 31365 layer_factory.hpp:77] Creating layer conv1_1
I1106 14:12:56.412885 31365 net.cpp:106] Creating Layer conv1_1
I1106 14:12:56.412889 31365 net.cpp:454] conv1_1 <- data_input-data_0_split_0
I1106 14:12:56.412894 31365 net.cpp:411] conv1_1 -> conv1_1
I1106 14:12:56.416105 31365 net.cpp:150] Setting up conv1_1
I1106 14:12:56.416131 31365 net.cpp:157] Top shape: 1 64 1000 1000 (64000000)
I1106 14:12:56.416133 31365 net.cpp:165] Memory required for data: 292000084
I1106 14:12:56.416146 31365 layer_factory.hpp:77] Creating layer relu1_1
I1106 14:12:56.416152 31365 net.cpp:106] Creating Layer relu1_1
I1106 14:12:56.416158 31365 net.cpp:454] relu1_1 <- conv1_1
I1106 14:12:56.416162 31365 net.cpp:397] relu1_1 -> conv1_1 (in-place)
I1106 14:12:56.416169 31365 net.cpp:150] Setting up relu1_1
I1106 14:12:56.416173 31365 net.cpp:157] Top shape: 1 64 1000 1000 (64000000)
I1106 14:12:56.416175 31365 net.cpp:165] Memory required for data: 548000084
I1106 14:12:56.416177 31365 layer_factory.hpp:77] Creating layer conv1_2
I1106 14:12:56.416183 31365 net.cpp:106] Creating Layer conv1_2
I1106 14:12:56.416185 31365 net.cpp:454] conv1_2 <- conv1_1
I1106 14:12:56.416193 31365 net.cpp:411] conv1_2 -> conv1_2
I1106 14:12:56.419381 31365 net.cpp:150] Setting up conv1_2
I1106 14:12:56.419407 31365 net.cpp:157] Top shape: 1 64 1000 1000 (64000000)
I1106 14:12:56.419410 31365 net.cpp:165] Memory required for data: 804000084
I1106 14:12:56.419420 31365 layer_factory.hpp:77] Creating layer relu1_2
I1106 14:12:56.419427 31365 net.cpp:106] Creating Layer relu1_2
I1106 14:12:56.419430 31365 net.cpp:454] relu1_2 <- conv1_2
I1106 14:12:56.419435 31365 net.cpp:397] relu1_2 -> conv1_2 (in-place)
I1106 14:12:56.419441 31365 net.cpp:150] Setting up relu1_2
I1106 14:12:56.419445 31365 net.cpp:157] Top shape: 1 64 1000 1000 (64000000)
I1106 14:12:56.419446 31365 net.cpp:165] Memory required for data: 1060000084
I1106 14:12:56.419450 31365 layer_factory.hpp:77] Creating layer pool1
I1106 14:12:56.419461 31365 net.cpp:106] Creating Layer pool1
I1106 14:12:56.419463 31365 net.cpp:454] pool1 <- conv1_2
I1106 14:12:56.419467 31365 net.cpp:411] pool1 -> pool1
I1106 14:12:56.419512 31365 net.cpp:150] Setting up pool1
I1106 14:12:56.419520 31365 net.cpp:157] Top shape: 1 64 500 500 (16000000)
I1106 14:12:56.419523 31365 net.cpp:165] Memory required for data: 1124000084
I1106 14:12:56.419525 31365 layer_factory.hpp:77] Creating layer conv2_1
I1106 14:12:56.419531 31365 net.cpp:106] Creating Layer conv2_1
I1106 14:12:56.419534 31365 net.cpp:454] conv2_1 <- pool1
I1106 14:12:56.419540 31365 net.cpp:411] conv2_1 -> conv2_1
I1106 14:12:56.421133 31365 net.cpp:150] Setting up conv2_1
I1106 14:12:56.421156 31365 net.cpp:157] Top shape: 1 128 500 500 (32000000)
I1106 14:12:56.421159 31365 net.cpp:165] Memory required for data: 1252000084
I1106 14:12:56.421169 31365 layer_factory.hpp:77] Creating layer relu2_1
I1106 14:12:56.421174 31365 net.cpp:106] Creating Layer relu2_1
I1106 14:12:56.421177 31365 net.cpp:454] relu2_1 <- conv2_1
I1106 14:12:56.421183 31365 net.cpp:397] relu2_1 -> conv2_1 (in-place)
I1106 14:12:56.421188 31365 net.cpp:150] Setting up relu2_1
I1106 14:12:56.421205 31365 net.cpp:157] Top shape: 1 128 500 500 (32000000)
I1106 14:12:56.421206 31365 net.cpp:165] Memory required for data: 1380000084
I1106 14:12:56.421210 31365 layer_factory.hpp:77] Creating layer conv2_2
I1106 14:12:56.421216 31365 net.cpp:106] Creating Layer conv2_2
I1106 14:12:56.421217 31365 net.cpp:454] conv2_2 <- conv2_1
I1106 14:12:56.421223 31365 net.cpp:411] conv2_2 -> conv2_2
I1106 14:12:56.422298 31365 net.cpp:150] Setting up conv2_2
I1106 14:12:56.422322 31365 net.cpp:157] Top shape: 1 128 500 500 (32000000)
I1106 14:12:56.422325 31365 net.cpp:165] Memory required for data: 1508000084
I1106 14:12:56.422332 31365 layer_factory.hpp:77] Creating layer relu2_2
I1106 14:12:56.422339 31365 net.cpp:106] Creating Layer relu2_2
I1106 14:12:56.422343 31365 net.cpp:454] relu2_2 <- conv2_2
I1106 14:12:56.422346 31365 net.cpp:397] relu2_2 -> conv2_2 (in-place)
I1106 14:12:56.422351 31365 net.cpp:150] Setting up relu2_2
I1106 14:12:56.422368 31365 net.cpp:157] Top shape: 1 128 500 500 (32000000)
I1106 14:12:56.422369 31365 net.cpp:165] Memory required for data: 1636000084
I1106 14:12:56.422372 31365 layer_factory.hpp:77] Creating layer pool2
I1106 14:12:56.422376 31365 net.cpp:106] Creating Layer pool2
I1106 14:12:56.422411 31365 net.cpp:454] pool2 <- conv2_2
I1106 14:12:56.422430 31365 net.cpp:411] pool2 -> pool2
I1106 14:12:56.422471 31365 net.cpp:150] Setting up pool2
I1106 14:12:56.422478 31365 net.cpp:157] Top shape: 1 128 250 250 (8000000)
I1106 14:12:56.422480 31365 net.cpp:165] Memory required for data: 1668000084
I1106 14:12:56.422483 31365 layer_factory.hpp:77] Creating layer conv3_1
I1106 14:12:56.422492 31365 net.cpp:106] Creating Layer conv3_1
I1106 14:12:56.422494 31365 net.cpp:454] conv3_1 <- pool2
I1106 14:12:56.422500 31365 net.cpp:411] conv3_1 -> conv3_1
I1106 14:12:56.423669 31365 net.cpp:150] Setting up conv3_1
I1106 14:12:56.423694 31365 net.cpp:157] Top shape: 1 256 250 250 (16000000)
I1106 14:12:56.423697 31365 net.cpp:165] Memory required for data: 1732000084
I1106 14:12:56.423720 31365 layer_factory.hpp:77] Creating layer relu3_1
I1106 14:12:56.423727 31365 net.cpp:106] Creating Layer relu3_1
I1106 14:12:56.423729 31365 net.cpp:454] relu3_1 <- conv3_1
I1106 14:12:56.423734 31365 net.cpp:397] relu3_1 -> conv3_1 (in-place)
I1106 14:12:56.423739 31365 net.cpp:150] Setting up relu3_1
I1106 14:12:56.423743 31365 net.cpp:157] Top shape: 1 256 250 250 (16000000)
I1106 14:12:56.423745 31365 net.cpp:165] Memory required for data: 1796000084
I1106 14:12:56.423748 31365 layer_factory.hpp:77] Creating layer conv3_2
I1106 14:12:56.423761 31365 net.cpp:106] Creating Layer conv3_2
I1106 14:12:56.423768 31365 net.cpp:454] conv3_2 <- conv3_1
I1106 14:12:56.423773 31365 net.cpp:411] conv3_2 -> conv3_2
I1106 14:12:56.425509 31365 net.cpp:150] Setting up conv3_2
I1106 14:12:56.425534 31365 net.cpp:157] Top shape: 1 256 250 250 (16000000)
I1106 14:12:56.425537 31365 net.cpp:165] Memory required for data: 1860000084
I1106 14:12:56.425544 31365 layer_factory.hpp:77] Creating layer relu3_2
I1106 14:12:56.425561 31365 net.cpp:106] Creating Layer relu3_2
I1106 14:12:56.425565 31365 net.cpp:454] relu3_2 <- conv3_2
I1106 14:12:56.425570 31365 net.cpp:397] relu3_2 -> conv3_2 (in-place)
I1106 14:12:56.425576 31365 net.cpp:150] Setting up relu3_2
I1106 14:12:56.425580 31365 net.cpp:157] Top shape: 1 256 250 250 (16000000)
I1106 14:12:56.425581 31365 net.cpp:165] Memory required for data: 1924000084
I1106 14:12:56.425583 31365 layer_factory.hpp:77] Creating layer conv3_3
I1106 14:12:56.425591 31365 net.cpp:106] Creating Layer conv3_3
I1106 14:12:56.425595 31365 net.cpp:454] conv3_3 <- conv3_2
I1106 14:12:56.425601 31365 net.cpp:411] conv3_3 -> conv3_3
I1106 14:12:56.427350 31365 net.cpp:150] Setting up conv3_3
I1106 14:12:56.427376 31365 net.cpp:157] Top shape: 1 256 250 250 (16000000)
I1106 14:12:56.427379 31365 net.cpp:165] Memory required for data: 1988000084
I1106 14:12:56.427386 31365 layer_factory.hpp:77] Creating layer relu3_3
I1106 14:12:56.427403 31365 net.cpp:106] Creating Layer relu3_3
I1106 14:12:56.427408 31365 net.cpp:454] relu3_3 <- conv3_3
I1106 14:12:56.427413 31365 net.cpp:397] relu3_3 -> conv3_3 (in-place)
I1106 14:12:56.427418 31365 net.cpp:150] Setting up relu3_3
I1106 14:12:56.427423 31365 net.cpp:157] Top shape: 1 256 250 250 (16000000)
I1106 14:12:56.427424 31365 net.cpp:165] Memory required for data: 2052000084
I1106 14:12:56.427428 31365 layer_factory.hpp:77] Creating layer pool3
I1106 14:12:56.427431 31365 net.cpp:106] Creating Layer pool3
I1106 14:12:56.427434 31365 net.cpp:454] pool3 <- conv3_3
I1106 14:12:56.427439 31365 net.cpp:411] pool3 -> pool3
I1106 14:12:56.427491 31365 net.cpp:150] Setting up pool3
I1106 14:12:56.427500 31365 net.cpp:157] Top shape: 1 256 125 125 (4000000)
I1106 14:12:56.427501 31365 net.cpp:165] Memory required for data: 2068000084
I1106 14:12:56.427505 31365 layer_factory.hpp:77] Creating layer conv4_1
I1106 14:12:56.427511 31365 net.cpp:106] Creating Layer conv4_1
I1106 14:12:56.427515 31365 net.cpp:454] conv4_1 <- pool3
I1106 14:12:56.427520 31365 net.cpp:411] conv4_1 -> conv4_1
I1106 14:12:56.431623 31365 net.cpp:150] Setting up conv4_1
I1106 14:12:56.431648 31365 net.cpp:157] Top shape: 1 512 125 125 (8000000)
I1106 14:12:56.431651 31365 net.cpp:165] Memory required for data: 2100000084
I1106 14:12:56.431658 31365 layer_factory.hpp:77] Creating layer relu4_1
I1106 14:12:56.431674 31365 net.cpp:106] Creating Layer relu4_1
I1106 14:12:56.431677 31365 net.cpp:454] relu4_1 <- conv4_1
I1106 14:12:56.431684 31365 net.cpp:397] relu4_1 -> conv4_1 (in-place)
I1106 14:12:56.431690 31365 net.cpp:150] Setting up relu4_1
I1106 14:12:56.431706 31365 net.cpp:157] Top shape: 1 512 125 125 (8000000)
I1106 14:12:56.431708 31365 net.cpp:165] Memory required for data: 2132000084
I1106 14:12:56.431710 31365 layer_factory.hpp:77] Creating layer conv4_2
I1106 14:12:56.431716 31365 net.cpp:106] Creating Layer conv4_2
I1106 14:12:56.431731 31365 net.cpp:454] conv4_2 <- conv4_1
I1106 14:12:56.431737 31365 net.cpp:411] conv4_2 -> conv4_2
I1106 14:12:56.437165 31365 net.cpp:150] Setting up conv4_2
I1106 14:12:56.437189 31365 net.cpp:157] Top shape: 1 512 125 125 (8000000)
I1106 14:12:56.437192 31365 net.cpp:165] Memory required for data: 2164000084
I1106 14:12:56.437217 31365 layer_factory.hpp:77] Creating layer relu4_2
I1106 14:12:56.437223 31365 net.cpp:106] Creating Layer relu4_2
I1106 14:12:56.437227 31365 net.cpp:454] relu4_2 <- conv4_2
I1106 14:12:56.437232 31365 net.cpp:397] relu4_2 -> conv4_2 (in-place)
I1106 14:12:56.437248 31365 net.cpp:150] Setting up relu4_2
I1106 14:12:56.437252 31365 net.cpp:157] Top shape: 1 512 125 125 (8000000)
I1106 14:12:56.437254 31365 net.cpp:165] Memory required for data: 2196000084
I1106 14:12:56.437256 31365 layer_factory.hpp:77] Creating layer conv4_3
I1106 14:12:56.437275 31365 net.cpp:106] Creating Layer conv4_3
I1106 14:12:56.437278 31365 net.cpp:454] conv4_3 <- conv4_2
I1106 14:12:56.437283 31365 net.cpp:411] conv4_3 -> conv4_3
I1106 14:12:56.442781 31365 net.cpp:150] Setting up conv4_3
I1106 14:12:56.442806 31365 net.cpp:157] Top shape: 1 512 125 125 (8000000)
I1106 14:12:56.442809 31365 net.cpp:165] Memory required for data: 2228000084
I1106 14:12:56.442816 31365 layer_factory.hpp:77] Creating layer relu4_3
I1106 14:12:56.442834 31365 net.cpp:106] Creating Layer relu4_3
I1106 14:12:56.442839 31365 net.cpp:454] relu4_3 <- conv4_3
I1106 14:12:56.442843 31365 net.cpp:397] relu4_3 -> conv4_3 (in-place)
I1106 14:12:56.442849 31365 net.cpp:150] Setting up relu4_3
I1106 14:12:56.442852 31365 net.cpp:157] Top shape: 1 512 125 125 (8000000)
I1106 14:12:56.442867 31365 net.cpp:165] Memory required for data: 2260000084
I1106 14:12:56.442869 31365 layer_factory.hpp:77] Creating layer pool4
I1106 14:12:56.442878 31365 net.cpp:106] Creating Layer pool4
I1106 14:12:56.442881 31365 net.cpp:454] pool4 <- conv4_3
I1106 14:12:56.442885 31365 net.cpp:411] pool4 -> pool4
I1106 14:12:56.442939 31365 net.cpp:150] Setting up pool4
I1106 14:12:56.442946 31365 net.cpp:157] Top shape: 1 512 63 63 (2032128)
I1106 14:12:56.442950 31365 net.cpp:165] Memory required for data: 2268128596
I1106 14:12:56.442951 31365 layer_factory.hpp:77] Creating layer conv5_1
I1106 14:12:56.442960 31365 net.cpp:106] Creating Layer conv5_1
I1106 14:12:56.442963 31365 net.cpp:454] conv5_1 <- pool4
I1106 14:12:56.442968 31365 net.cpp:411] conv5_1 -> conv5_1
I1106 14:12:56.448397 31365 net.cpp:150] Setting up conv5_1
I1106 14:12:56.448422 31365 net.cpp:157] Top shape: 1 512 63 63 (2032128)
I1106 14:12:56.448424 31365 net.cpp:165] Memory required for data: 2276257108
I1106 14:12:56.448431 31365 layer_factory.hpp:77] Creating layer relu5_1
I1106 14:12:56.448451 31365 net.cpp:106] Creating Layer relu5_1
I1106 14:12:56.448453 31365 net.cpp:454] relu5_1 <- conv5_1
I1106 14:12:56.448457 31365 net.cpp:397] relu5_1 -> conv5_1 (in-place)
I1106 14:12:56.448463 31365 net.cpp:150] Setting up relu5_1
I1106 14:12:56.448467 31365 net.cpp:157] Top shape: 1 512 63 63 (2032128)
I1106 14:12:56.448482 31365 net.cpp:165] Memory required for data: 2284385620
I1106 14:12:56.448483 31365 layer_factory.hpp:77] Creating layer conv5_2
I1106 14:12:56.448492 31365 net.cpp:106] Creating Layer conv5_2
I1106 14:12:56.448506 31365 net.cpp:454] conv5_2 <- conv5_1
I1106 14:12:56.448513 31365 net.cpp:411] conv5_2 -> conv5_2
I1106 14:12:56.454000 31365 net.cpp:150] Setting up conv5_2
I1106 14:12:56.454015 31365 net.cpp:157] Top shape: 1 512 63 63 (2032128)
I1106 14:12:56.454028 31365 net.cpp:165] Memory required for data: 2292514132
I1106 14:12:56.454035 31365 layer_factory.hpp:77] Creating layer relu5_2
I1106 14:12:56.454041 31365 net.cpp:106] Creating Layer relu5_2
I1106 14:12:56.454056 31365 net.cpp:454] relu5_2 <- conv5_2
I1106 14:12:56.454062 31365 net.cpp:397] relu5_2 -> conv5_2 (in-place)
I1106 14:12:56.454068 31365 net.cpp:150] Setting up relu5_2
I1106 14:12:56.454071 31365 net.cpp:157] Top shape: 1 512 63 63 (2032128)
I1106 14:12:56.454087 31365 net.cpp:165] Memory required for data: 2300642644
I1106 14:12:56.454088 31365 layer_factory.hpp:77] Creating layer conv5_3
I1106 14:12:56.454115 31365 net.cpp:106] Creating Layer conv5_3
I1106 14:12:56.454118 31365 net.cpp:454] conv5_3 <- conv5_2
I1106 14:12:56.454123 31365 net.cpp:411] conv5_3 -> conv5_3
I1106 14:12:56.459601 31365 net.cpp:150] Setting up conv5_3
I1106 14:12:56.459627 31365 net.cpp:157] Top shape: 1 512 63 63 (2032128)
I1106 14:12:56.459630 31365 net.cpp:165] Memory required for data: 2308771156
I1106 14:12:56.459636 31365 layer_factory.hpp:77] Creating layer relu5_3
I1106 14:12:56.459653 31365 net.cpp:106] Creating Layer relu5_3
I1106 14:12:56.459656 31365 net.cpp:454] relu5_3 <- conv5_3
I1106 14:12:56.459663 31365 net.cpp:397] relu5_3 -> conv5_3 (in-place)
I1106 14:12:56.459669 31365 net.cpp:150] Setting up relu5_3
I1106 14:12:56.459684 31365 net.cpp:157] Top shape: 1 512 63 63 (2032128)
I1106 14:12:56.459687 31365 net.cpp:165] Memory required for data: 2316899668
I1106 14:12:56.459689 31365 layer_factory.hpp:77] Creating layer conv5_3_relu5_3_0_split
I1106 14:12:56.459695 31365 net.cpp:106] Creating Layer conv5_3_relu5_3_0_split
I1106 14:12:56.459697 31365 net.cpp:454] conv5_3_relu5_3_0_split <- conv5_3
I1106 14:12:56.459703 31365 net.cpp:411] conv5_3_relu5_3_0_split -> conv5_3_relu5_3_0_split_0
I1106 14:12:56.459709 31365 net.cpp:411] conv5_3_relu5_3_0_split -> conv5_3_relu5_3_0_split_1
I1106 14:12:56.459744 31365 net.cpp:150] Setting up conv5_3_relu5_3_0_split
I1106 14:12:56.459753 31365 net.cpp:157] Top shape: 1 512 63 63 (2032128)
I1106 14:12:56.459758 31365 net.cpp:157] Top shape: 1 512 63 63 (2032128)
I1106 14:12:56.459759 31365 net.cpp:165] Memory required for data: 2333156692
I1106 14:12:56.459761 31365 layer_factory.hpp:77] Creating layer rpn_conv/3x3
I1106 14:12:56.459774 31365 net.cpp:106] Creating Layer rpn_conv/3x3
I1106 14:12:56.459776 31365 net.cpp:454] rpn_conv/3x3 <- conv5_3_relu5_3_0_split_0
I1106 14:12:56.459781 31365 net.cpp:411] rpn_conv/3x3 -> rpn/output
I1106 14:12:56.489893 31365 net.cpp:150] Setting up rpn_conv/3x3
I1106 14:12:56.489907 31365 net.cpp:157] Top shape: 1 512 63 63 (2032128)
I1106 14:12:56.489910 31365 net.cpp:165] Memory required for data: 2341285204
I1106 14:12:56.489917 31365 layer_factory.hpp:77] Creating layer rpn_relu/3x3
I1106 14:12:56.489924 31365 net.cpp:106] Creating Layer rpn_relu/3x3
I1106 14:12:56.489928 31365 net.cpp:454] rpn_relu/3x3 <- rpn/output
I1106 14:12:56.489943 31365 net.cpp:397] rpn_relu/3x3 -> rpn/output (in-place)
I1106 14:12:56.489949 31365 net.cpp:150] Setting up rpn_relu/3x3
I1106 14:12:56.489953 31365 net.cpp:157] Top shape: 1 512 63 63 (2032128)
I1106 14:12:56.489954 31365 net.cpp:165] Memory required for data: 2349413716
I1106 14:12:56.489958 31365 layer_factory.hpp:77] Creating layer rpn/output_rpn_relu/3x3_0_split
I1106 14:12:56.489964 31365 net.cpp:106] Creating Layer rpn/output_rpn_relu/3x3_0_split
I1106 14:12:56.489966 31365 net.cpp:454] rpn/output_rpn_relu/3x3_0_split <- rpn/output
I1106 14:12:56.489970 31365 net.cpp:411] rpn/output_rpn_relu/3x3_0_split -> rpn/output_rpn_relu/3x3_0_split_0
I1106 14:12:56.489976 31365 net.cpp:411] rpn/output_rpn_relu/3x3_0_split -> rpn/output_rpn_relu/3x3_0_split_1
I1106 14:12:56.490013 31365 net.cpp:150] Setting up rpn/output_rpn_relu/3x3_0_split
I1106 14:12:56.490020 31365 net.cpp:157] Top shape: 1 512 63 63 (2032128)
I1106 14:12:56.490025 31365 net.cpp:157] Top shape: 1 512 63 63 (2032128)
I1106 14:12:56.490026 31365 net.cpp:165] Memory required for data: 2365670740
I1106 14:12:56.490028 31365 layer_factory.hpp:77] Creating layer rpn_cls_score
I1106 14:12:56.490038 31365 net.cpp:106] Creating Layer rpn_cls_score
I1106 14:12:56.490041 31365 net.cpp:454] rpn_cls_score <- rpn/output_rpn_relu/3x3_0_split_0
I1106 14:12:56.490049 31365 net.cpp:411] rpn_cls_score -> rpn_cls_score
I1106 14:12:56.490422 31365 net.cpp:150] Setting up rpn_cls_score
I1106 14:12:56.490432 31365 net.cpp:157] Top shape: 1 18 63 63 (71442)
I1106 14:12:56.490433 31365 net.cpp:165] Memory required for data: 2365956508
I1106 14:12:56.490439 31365 layer_factory.hpp:77] Creating layer rpn_cls_score_rpn_cls_score_0_split
I1106 14:12:56.490444 31365 net.cpp:106] Creating Layer rpn_cls_score_rpn_cls_score_0_split
I1106 14:12:56.490447 31365 net.cpp:454] rpn_cls_score_rpn_cls_score_0_split <- rpn_cls_score
I1106 14:12:56.490468 31365 net.cpp:411] rpn_cls_score_rpn_cls_score_0_split -> rpn_cls_score_rpn_cls_score_0_split_0
I1106 14:12:56.490480 31365 net.cpp:411] rpn_cls_score_rpn_cls_score_0_split -> rpn_cls_score_rpn_cls_score_0_split_1
I1106 14:12:56.490515 31365 net.cpp:150] Setting up rpn_cls_score_rpn_cls_score_0_split
I1106 14:12:56.490523 31365 net.cpp:157] Top shape: 1 18 63 63 (71442)
I1106 14:12:56.490526 31365 net.cpp:157] Top shape: 1 18 63 63 (71442)
I1106 14:12:56.490528 31365 net.cpp:165] Memory required for data: 2366528044
I1106 14:12:56.490531 31365 layer_factory.hpp:77] Creating layer rpn_bbox_pred
I1106 14:12:56.490542 31365 net.cpp:106] Creating Layer rpn_bbox_pred
I1106 14:12:56.490547 31365 net.cpp:454] rpn_bbox_pred <- rpn/output_rpn_relu/3x3_0_split_1
I1106 14:12:56.490553 31365 net.cpp:411] rpn_bbox_pred -> rpn_bbox_pred
I1106 14:12:56.491016 31365 net.cpp:150] Setting up rpn_bbox_pred
I1106 14:12:56.491027 31365 net.cpp:157] Top shape: 1 36 63 63 (142884)
I1106 14:12:56.491030 31365 net.cpp:165] Memory required for data: 2367099580
I1106 14:12:56.491035 31365 layer_factory.hpp:77] Creating layer rpn_bbox_pred_rpn_bbox_pred_0_split
I1106 14:12:56.491040 31365 net.cpp:106] Creating Layer rpn_bbox_pred_rpn_bbox_pred_0_split
I1106 14:12:56.491044 31365 net.cpp:454] rpn_bbox_pred_rpn_bbox_pred_0_split <- rpn_bbox_pred
I1106 14:12:56.491048 31365 net.cpp:411] rpn_bbox_pred_rpn_bbox_pred_0_split -> rpn_bbox_pred_rpn_bbox_pred_0_split_0
I1106 14:12:56.491055 31365 net.cpp:411] rpn_bbox_pred_rpn_bbox_pred_0_split -> rpn_bbox_pred_rpn_bbox_pred_0_split_1
I1106 14:12:56.491129 31365 net.cpp:150] Setting up rpn_bbox_pred_rpn_bbox_pred_0_split
I1106 14:12:56.491134 31365 net.cpp:157] Top shape: 1 36 63 63 (142884)
I1106 14:12:56.491137 31365 net.cpp:157] Top shape: 1 36 63 63 (142884)
I1106 14:12:56.491139 31365 net.cpp:165] Memory required for data: 2368242652
I1106 14:12:56.491142 31365 layer_factory.hpp:77] Creating layer rpn_cls_score_reshape
I1106 14:12:56.491150 31365 net.cpp:106] Creating Layer rpn_cls_score_reshape
I1106 14:12:56.491153 31365 net.cpp:454] rpn_cls_score_reshape <- rpn_cls_score_rpn_cls_score_0_split_0
I1106 14:12:56.491160 31365 net.cpp:411] rpn_cls_score_reshape -> rpn_cls_score_reshape
I1106 14:12:56.491185 31365 net.cpp:150] Setting up rpn_cls_score_reshape
I1106 14:12:56.491192 31365 net.cpp:157] Top shape: 1 2 567 63 (71442)
I1106 14:12:56.491195 31365 net.cpp:165] Memory required for data: 2368528420
I1106 14:12:56.491197 31365 layer_factory.hpp:77] Creating layer rpn_cls_score_reshape_rpn_cls_score_reshape_0_split
I1106 14:12:56.491202 31365 net.cpp:106] Creating Layer rpn_cls_score_reshape_rpn_cls_score_reshape_0_split
I1106 14:12:56.491205 31365 net.cpp:454] rpn_cls_score_reshape_rpn_cls_score_reshape_0_split <- rpn_cls_score_reshape
I1106 14:12:56.491211 31365 net.cpp:411] rpn_cls_score_reshape_rpn_cls_score_reshape_0_split -> rpn_cls_score_reshape_rpn_cls_score_reshape_0_split_0
I1106 14:12:56.491219 31365 net.cpp:411] rpn_cls_score_reshape_rpn_cls_score_reshape_0_split -> rpn_cls_score_reshape_rpn_cls_score_reshape_0_split_1
I1106 14:12:56.491250 31365 net.cpp:150] Setting up rpn_cls_score_reshape_rpn_cls_score_reshape_0_split
I1106 14:12:56.491256 31365 net.cpp:157] Top shape: 1 2 567 63 (71442)
I1106 14:12:56.491259 31365 net.cpp:157] Top shape: 1 2 567 63 (71442)
I1106 14:12:56.491262 31365 net.cpp:165] Memory required for data: 2369099956
I1106 14:12:56.491264 31365 layer_factory.hpp:77] Creating layer rpn-data
I1106 14:12:56.491930 31365 net.cpp:106] Creating Layer rpn-data
I1106 14:12:56.491943 31365 net.cpp:454] rpn-data <- rpn_cls_score_rpn_cls_score_0_split_1
I1106 14:12:56.491950 31365 net.cpp:454] rpn-data <- gt_boxes_input-data_2_split_0
I1106 14:12:56.491953 31365 net.cpp:454] rpn-data <- im_info_input-data_1_split_0
I1106 14:12:56.491956 31365 net.cpp:454] rpn-data <- data_input-data_0_split_1
I1106 14:12:56.491962 31365 net.cpp:411] rpn-data -> rpn_labels
I1106 14:12:56.491982 31365 net.cpp:411] rpn-data -> rpn_bbox_targets
I1106 14:12:56.491991 31365 net.cpp:411] rpn-data -> rpn_bbox_inside_weights
I1106 14:12:56.491997 31365 net.cpp:411] rpn-data -> rpn_bbox_outside_weights
I1106 14:12:56.493487 31365 net.cpp:150] Setting up rpn-data
I1106 14:12:56.493515 31365 net.cpp:157] Top shape: 1 1 567 63 (35721)
I1106 14:12:56.493520 31365 net.cpp:157] Top shape: 1 36 63 63 (142884)
I1106 14:12:56.493522 31365 net.cpp:157] Top shape: 1 36 63 63 (142884)
I1106 14:12:56.493525 31365 net.cpp:157] Top shape: 1 36 63 63 (142884)
I1106 14:12:56.493540 31365 net.cpp:165] Memory required for data: 2370957448
I1106 14:12:56.493543 31365 layer_factory.hpp:77] Creating layer rpn_loss_cls
I1106 14:12:56.493551 31365 net.cpp:106] Creating Layer rpn_loss_cls
I1106 14:12:56.493554 31365 net.cpp:454] rpn_loss_cls <- rpn_cls_score_reshape_rpn_cls_score_reshape_0_split_0
I1106 14:12:56.493559 31365 net.cpp:454] rpn_loss_cls <- rpn_labels
…
I1106 14:12:56.495450 31365 net.cpp:157] Top shape: (1)
I1106 14:12:56.495453 31365 net.cpp:160]     with loss weight 1
I1106 14:12:56.495458 31365 net.cpp:165] Memory required for data: 2370957456
I1106 14:12:56.495462 31365 layer_factory.hpp:77] Creating layer rpn_cls_prob
I1106 14:12:56.495471 31365 net.cpp:106] Creating Layer rpn_cls_prob
I1106 14:12:56.495486 31365 net.cpp:454] rpn_cls_prob <- rpn_cls_score_reshape_rpn_cls_score_reshape_0_split_1
I1106 14:12:56.495491 31365 net.cpp:411] rpn_cls_prob -> rpn_cls_prob
I1106 14:12:56.495555 31365 net.cpp:150] Setting up rpn_cls_prob
I1106 14:12:56.495564 31365 net.cpp:157] Top shape: 1 2 567 63 (71442)
I1106 14:12:56.495566 31365 net.cpp:165] Memory required for data: 2371243224
I1106 14:12:56.495569 31365 layer_factory.hpp:77] Creating layer rpn_cls_prob_reshape
I1106 14:12:56.495575 31365 net.cpp:106] Creating Layer rpn_cls_prob_reshape
I1106 14:12:56.495579 31365 net.cpp:454] rpn_cls_prob_reshape <- rpn_cls_prob
I1106 14:12:56.495584 31365 net.cpp:411] rpn_cls_prob_reshape -> rpn_cls_prob_reshape
I1106 14:12:56.495609 31365 net.cpp:150] Setting up rpn_cls_prob_reshape
I1106 14:12:56.495615 31365 net.cpp:157] Top shape: 1 18 63 63 (71442)
I1106 14:12:56.495617 31365 net.cpp:165] Memory required for data: 2371528992
I1106 14:12:56.495620 31365 layer_factory.hpp:77] Creating layer proposal
I1106 14:12:56.497107 31365 net.cpp:106] Creating Layer proposal
I1106 14:12:56.497119 31365 net.cpp:454] proposal <- rpn_cls_prob_reshape
I1106 14:12:56.497125 31365 net.cpp:454] proposal <- rpn_bbox_pred_rpn_bbox_pred_0_split_1
I1106 14:12:56.497129 31365 net.cpp:454] proposal <- im_info_input-data_1_split_1
I1106 14:12:56.497134 31365 net.cpp:411] proposal -> rpn_rois
I1106 14:12:56.497771 31365 net.cpp:150] Setting up proposal
I1106 14:12:56.497797 31365 net.cpp:157] Top shape: 1 5 (5)
I1106 14:12:56.497799 31365 net.cpp:165] Memory required for data: 2371529012
I1106 14:12:56.497802 31365 layer_factory.hpp:77] Creating layer roi-data
I1106 14:12:56.497993 31365 net.cpp:106] Creating Layer roi-data
I1106 14:12:56.498005 31365 net.cpp:454] roi-data <- rpn_rois
I1106 14:12:56.498011 31365 net.cpp:454] roi-data <- gt_boxes_input-data_2_split_1
I1106 14:12:56.498018 31365 net.cpp:411] roi-data -> rois
I1106 14:12:56.498025 31365 net.cpp:411] roi-data -> labels
I1106 14:12:56.498035 31365 net.cpp:411] roi-data -> bbox_targets
I1106 14:12:56.498041 31365 net.cpp:411] roi-data -> bbox_inside_weights
I1106 14:12:56.498047 31365 net.cpp:411] roi-data -> bbox_outside_weights
I1106 14:12:56.498518 31365 net.cpp:150] Setting up roi-data
I1106 14:12:56.498543 31365 net.cpp:157] Top shape: 1 5 (5)
I1106 14:12:56.498548 31365 net.cpp:157] Top shape: 1 1 (1)
I1106 14:12:56.498549 31365 net.cpp:157] Top shape: 1 8 (8)
I1106 14:12:56.498553 31365 net.cpp:157] Top shape: 1 8 (8)
I1106 14:12:56.498555 31365 net.cpp:157] Top shape: 1 8 (8)
I1106 14:12:56.498569 31365 net.cpp:165] Memory required for data: 2371529132
I1106 14:12:56.498572 31365 layer_factory.hpp:77] Creating layer labels_roi-data_1_split
I1106 14:12:56.498579 31365 net.cpp:106] Creating Layer labels_roi-data_1_split
I1106 14:12:56.498581 31365 net.cpp:454] labels_roi-data_1_split <- labels
I1106 14:12:56.498587 31365 net.cpp:411] labels_roi-data_1_split -> labels_roi-data_1_split_0
I1106 14:12:56.498606 31365 net.cpp:411] labels_roi-data_1_split -> labels_roi-data_1_split_1
I1106 14:12:56.498639 31365 net.cpp:150] Setting up labels_roi-data_1_split
I1106 14:12:56.498646 31365 net.cpp:157] Top shape: 1 1 (1)
I1106 14:12:56.498649 31365 net.cpp:157] Top shape: 1 1 (1)
I1106 14:12:56.498651 31365 net.cpp:165] Memory required for data: 2371529140
I1106 14:12:56.498654 31365 layer_factory.hpp:77] Creating layer roi_pool5
I1106 14:12:56.498661 31365 net.cpp:106] Creating Layer roi_pool5
I1106 14:12:56.498663 31365 net.cpp:454] roi_pool5 <- conv5_3_relu5_3_0_split_1
I1106 14:12:56.498667 31365 net.cpp:454] roi_pool5 <- rois
I1106 14:12:56.498672 31365 net.cpp:411] roi_pool5 -> pool5
I1106 14:12:56.498678 31365 roi_pooling_layer.cpp:30] Spatial scale: 0.0625
I1106 14:12:56.498714 31365 net.cpp:150] Setting up roi_pool5
I1106 14:12:56.498721 31365 net.cpp:157] Top shape: 1 512 7 7 (25088)
I1106 14:12:56.498723 31365 net.cpp:165] Memory required for data: 2371629492
I1106 14:12:56.498726 31365 layer_factory.hpp:77] Creating layer fc6
I1106 14:12:56.498733 31365 net.cpp:106] Creating Layer fc6
I1106 14:12:56.498734 31365 net.cpp:454] fc6 <- pool5
I1106 14:12:56.498745 31365 net.cpp:411] fc6 -> fc6
I1106 14:12:56.770318 31365 net.cpp:150] Setting up fc6
I1106 14:12:56.770367 31365 net.cpp:157] Top shape: 1 4096 (4096)
I1106 14:12:56.770370 31365 net.cpp:165] Memory required for data: 2371645876
I1106 14:12:56.770428 31365 layer_factory.hpp:77] Creating layer relu6
I1106 14:12:56.770439 31365 net.cpp:106] Creating Layer relu6
I1106 14:12:56.770443 31365 net.cpp:454] relu6 <- fc6
I1106 14:12:56.770450 31365 net.cpp:397] relu6 -> fc6 (in-place)
I1106 14:12:56.770459 31365 net.cpp:150] Setting up relu6
I1106 14:12:56.770463 31365 net.cpp:157] Top shape: 1 4096 (4096)
I1106 14:12:56.770465 31365 net.cpp:165] Memory required for data: 2371662260
I1106 14:12:56.770479 31365 layer_factory.hpp:77] Creating layer drop6
I1106 14:12:56.770488 31365 net.cpp:106] Creating Layer drop6
I1106 14:12:56.770490 31365 net.cpp:454] drop6 <- fc6
I1106 14:12:56.770494 31365 net.cpp:397] drop6 -> fc6 (in-place)
I1106 14:12:56.770522 31365 net.cpp:150] Setting up drop6
I1106 14:12:56.770526 31365 net.cpp:157] Top shape: 1 4096 (4096)
I1106 14:12:56.770529 31365 net.cpp:165] Memory required for data: 2371678644
I1106 14:12:56.770531 31365 layer_factory.hpp:77] Creating layer fc7
I1106 14:12:56.770536 31365 net.cpp:106] Creating Layer fc7
I1106 14:12:56.770539 31365 net.cpp:454] fc7 <- fc6
I1106 14:12:56.770558 31365 net.cpp:411] fc7 -> fc7
I1106 14:12:56.815142 31365 net.cpp:150] Setting up fc7
I1106 14:12:56.815193 31365 net.cpp:157] Top shape: 1 4096 (4096)
I1106 14:12:56.815196 31365 net.cpp:165] Memory required for data: 2371695028
I1106 14:12:56.815207 31365 layer_factory.hpp:77] Creating layer relu7
I1106 14:12:56.815217 31365 net.cpp:106] Creating Layer relu7
I1106 14:12:56.815222 31365 net.cpp:454] relu7 <- fc7
I1106 14:12:56.815229 31365 net.cpp:397] relu7 -> fc7 (in-place)
I1106 14:12:56.815238 31365 net.cpp:150] Setting up relu7
I1106 14:12:56.815254 31365 net.cpp:157] Top shape: 1 4096 (4096)
I1106 14:12:56.815256 31365 net.cpp:165] Memory required for data: 2371711412
I1106 14:12:56.815258 31365 layer_factory.hpp:77] Creating layer drop7
I1106 14:12:56.815264 31365 net.cpp:106] Creating Layer drop7
I1106 14:12:56.815268 31365 net.cpp:454] drop7 <- fc7
I1106 14:12:56.815270 31365 net.cpp:397] drop7 -> fc7 (in-place)
I1106 14:12:56.815296 31365 net.cpp:150] Setting up drop7
I1106 14:12:56.815304 31365 net.cpp:157] Top shape: 1 4096 (4096)
I1106 14:12:56.815318 31365 net.cpp:165] Memory required for data: 2371727796
I1106 14:12:56.815320 31365 layer_factory.hpp:77] Creating layer fc7_drop7_0_split
I1106 14:12:56.815326 31365 net.cpp:106] Creating Layer fc7_drop7_0_split
I1106 14:12:56.815330 31365 net.cpp:454] fc7_drop7_0_split <- fc7
I1106 14:12:56.815336 31365 net.cpp:411] fc7_drop7_0_split -> fc7_drop7_0_split_0
I1106 14:12:56.815342 31365 net.cpp:411] fc7_drop7_0_split -> fc7_drop7_0_split_1
I1106 14:12:56.815395 31365 net.cpp:150] Setting up fc7_drop7_0_split
I1106 14:12:56.815402 31365 net.cpp:157] Top shape: 1 4096 (4096)
I1106 14:12:56.815407 31365 net.cpp:157] Top shape: 1 4096 (4096)
I1106 14:12:56.815408 31365 net.cpp:165] Memory required for data: 2371760564
I1106 14:12:56.815410 31365 layer_factory.hpp:77] Creating layer cls_score
I1106 14:12:56.815418 31365 net.cpp:106] Creating Layer cls_score
I1106 14:12:56.815421 31365 net.cpp:454] cls_score <- fc7_drop7_0_split_0
I1106 14:12:56.815428 31365 net.cpp:411] cls_score -> cls_score
I1106 14:12:56.815649 31365 net.cpp:150] Setting up cls_score
I1106 14:12:56.815656 31365 net.cpp:157] Top shape: 1 2 (2)
I1106 14:12:56.815659 31365 net.cpp:165] Memory required for data: 2371760572
I1106 14:12:56.815663 31365 layer_factory.hpp:77] Creating layer cls_score_cls_score_0_split
I1106 14:12:56.815668 31365 net.cpp:106] Creating Layer cls_score_cls_score_0_split
I1106 14:12:56.815683 31365 net.cpp:454] cls_score_cls_score_0_split <- cls_score
I1106 14:12:56.815690 31365 net.cpp:411] cls_score_cls_score_0_split -> cls_score_cls_score_0_split_0
I1106 14:12:56.815696 31365 net.cpp:411] cls_score_cls_score_0_split -> cls_score_cls_score_0_split_1
I1106 14:12:56.815726 31365 net.cpp:150] Setting up cls_score_cls_score_0_split
I1106 14:12:56.815732 31365 net.cpp:157] Top shape: 1 2 (2)
I1106 14:12:56.815735 31365 net.cpp:157] Top shape: 1 2 (2)
I1106 14:12:56.815737 31365 net.cpp:165] Memory required for data: 2371760588
I1106 14:12:56.815740 31365 layer_factory.hpp:77] Creating layer bbox_pred
I1106 14:12:56.815749 31365 net.cpp:106] Creating Layer bbox_pred
I1106 14:12:56.815752 31365 net.cpp:454] bbox_pred <- fc7_drop7_0_split_1
I1106 14:12:56.815757 31365 net.cpp:411] bbox_pred -> bbox_pred
I1106 14:12:56.817019 31365 net.cpp:150] Setting up bbox_pred
I1106 14:12:56.817044 31365 net.cpp:157] Top shape: 1 8 (8)
I1106 14:12:56.817047 31365 net.cpp:165] Memory required for data: 2371760620
I1106 14:12:56.817054 31365 layer_factory.hpp:77] Creating layer loss_cls
I1106 14:12:56.817062 31365 net.cpp:106] Creating Layer loss_cls
I1106 14:12:56.817066 31365 net.cpp:454] loss_cls <- cls_score_cls_score_0_split_0
I1106 14:12:56.817071 31365 net.cpp:454] loss_cls <- labels_roi-data_1_split_0
I1106 14:12:56.817076 31365 net.cpp:411] loss_cls -> loss_cls
…
