…
snapshot_prefix: "vgg16_faster_rcnn_map"
average_loss: 100
iter_size: 2
I0921 14:39:18.459491 25129 solver.cpp:81] Creating training net from train_net file: models/map/VGG16/faster_rcnn_end2end/train.prototxt
I0921 14:39:18.460458 25129 net.cpp:49] Initializing net from parameters: 
name: "VGG_ILSVRC_16_layers"
state {
  phase: TRAIN
}
layer {
  name: "input-data"
  type: "Python"
  top: "data"
  top: "im_info"
  top: "gt_boxes"
  python_param {
    module: "roi_data_layer.layer"
    layer: "RoIDataLayer"
    param_str: "\'num_classes\': 2"
  }
}
layer {
  name: "conv1_1"
  type: "Convolution"
  bottom: "data"
  top: "conv1_1"
  param {
    lr_mult: 0
    decay_mult: 0
  }
  param {
    lr_mult: 0
    decay_mult: 0
  }
  convolution_param {
    num_output: 64
    pad: 1
    kernel_size: 3
  }
}
layer {
  name: "relu1_1"
  type: "ReLU"
  bottom: "conv1_1"
  top: "conv1_1"
}
layer {
  name: "conv1_2"
  type: "Convolution"
  bottom: "conv1_1"
  top: "conv1_2"
  param {
    lr_mult: 0
    decay_mult: 0
  }
  param {
    lr_mult: 0
    decay_mult: 0
  }
  convolution_param {
    num_output: 64
    pad: 1
    kernel_size: 3
  }
}
layer {
  name: "relu1_2"
  type: "ReLU"
  bottom: "conv1_2"
  top: "conv1_2"
}
layer {
  name: "pool1"
  type: "Pooling"
  bottom: "conv1_2"
  top: "pool1"
  pooling_param {
    pool: MAX
    kernel_size: 2
    stride: 2
  }
}
layer {
  name: "conv2_1"
  type: "Convolution"
  bottom: "pool1"
  top: "conv2_1"
  param {
    lr_mult: 0
    decay_mult: 0
  }
  param {
    lr_mult: 0
    decay_mult: 0
  }
  convolution_param {
    num_output: 128
    pad: 1
    kernel_size: 3
  }
}
layer {
  name: "relu2_1"
  type: "ReLU"
  bottom: "conv2_1"
  top: "conv2_1"
}
layer {
  name: "conv2_2"
  type: "Convolution"
  bottom: "conv2_1"
  top: "conv2_2"
  param {
    lr_mult: 0
    decay_mult: 0
  }
  param {
    lr_mult: 0
    decay_mult: 0
  }
  convolution_param {
    num_output: 128
    pad: 1
    kernel_size: 3
  }
}
layer {
  name: "relu2_2"
  type: "ReLU"
  bottom: "conv2_2"
  top: "conv2_2"
}
layer {
  name: "pool2"
  type: "Pooling"
  bottom: "conv2_2"
  top: "pool2"
  pooling_param {
    pool: MAX
    kernel_size: 2
    stride: 2
  }
}
layer {
  name: "conv3_1"
  type: "Convolution"
  bottom: "pool2"
  top: "conv3_1"
  param {
    lr_mult: 1
  }
  param {
    lr_mult: 2
  }
  convolution_param {
    num_output: 256
    pad: 1
    kernel_size: 3
  }
}
layer {
  name: "relu3_1"
  type: "ReLU"
  bottom: "conv3_1"
  top: "conv3_1"
}
layer {
  name: "conv3_2"
  type: "Convolution"
  bottom: "conv3_1"
  top: "conv3_2"
  param {
    lr_mult: 1
  }
  param {
    lr_mult: 2
  }
  convolution_param {
    num_output: 256
    pad: 1
    kernel_size: 3
  }
}
layer {
  name: "relu3_2"
  type: "ReLU"
  bottom: "conv3_2"
  top: "conv3_2"
}
layer {
  name: "conv3_3"
  type: "Convolution"
  bottom: "conv3_2"
  top: "conv3_3"
  param {
    lr_mult: 1
  }
  param {
    lr_mult: 2
  }
  convolution_param {
    num_output: 256
    pad: 1
    kernel_size: 3
  }
}
layer {
  name: "relu3_3"
  type: "ReLU"
  bottom: "conv3_3"
  top: "conv3_3"
}
layer {
  name: "pool3"
  type: "Pooling"
  bottom: "conv3_3"
  top: "pool3"
  pooling_param {
    pool: MAX
    kernel_size: 2
    stride: 2
  }
}
layer {
  name: "conv4_1"
  type: "Convolution"
  bottom: "pool3"
  top: "conv4_1"
  param {
    lr_mult: 1
  }
  param {
    lr_mult: 2
  }
  convolution_param {
    num_output: 512
    pad: 1
    kernel_size: 3
  }
}
layer {
  name: "relu4_1"
  type: "ReLU"
  bottom: "conv4_1"
  top: "conv4_1"
}
layer {
  name: "conv4_2"
  type: "Convolution"
  bottom: "conv4_1"
  top: "conv4_2"
  param {
    lr_mult: 1
  }
  param {
    lr_mult: 2
  }
  convolution_param {
    num_output: 512
    pad: 1
    kernel_size: 3
  }
}
layer {
  name: "relu4_2"
  type: "ReLU"
  bottom: "conv4_2"
  top: "conv4_2"
}
layer {
  name: "conv4_3"
  type: "Convolution"
  bottom: "conv4_2"
  top: "conv4_3"
  param {
    lr_mult: 1
  }
  param {
    lr_mult: 2
  }
  convolution_param {
    num_output: 512
    pad: 1
    kernel_size: 3
  }
}
layer {
  name: "relu4_3"
  type: "ReLU"
  bottom: "conv4_3"
  top: "conv4_3"
}
layer {
  name: "pool4"
  type: "Pooling"
  bottom: "conv4_3"
  top: "pool4"
  pooling_param {
    pool: MAX
    kernel_size: 2
    stride: 2
  }
}
layer {
  name: "conv5_1"
  type: "Convolution"
  bottom: "pool4"
  top: "conv5_1"
  param {
    lr_mult: 1
  }
  param {
    lr_mult: 2
  }
  convolution_param {
    num_output: 512
    pad: 1
    kernel_size: 3
  }
}
layer {
  name: "relu5_1"
  type: "ReLU"
  bottom: "conv5_1"
  top: "conv5_1"
}
layer {
  name: "conv5_2"
  type: "Convolution"
  bottom: "conv5_1"
  top: "conv5_2"
  param {
    lr_mult: 1
  }
  param {
    lr_mult: 2
  }
  convolution_param {
    num_output: 512
    pad: 1
    kernel_size: 3
  }
}
layer {
  name: "relu5_2"
  type: "ReLU"
  bottom: "conv5_2"
  top: "conv5_2"
}
layer {
  name: "conv5_3"
  type: "Convolution"
  bottom: "conv5_2"
  top: "conv5_3"
  param {
    lr_mult: 1
  }
  param {
    lr_mult: 2
  }
  convolution_param {
    num_output: 512
    pad: 1
    kernel_size: 3
  }
}
layer {
  name: "relu5_3"
  type: "ReLU"
  bottom: "conv5_3"
  top: "conv5_3"
}
layer {
  name: "rpn_conv/3x3"
  type: "Convolution"
  bottom: "conv5_3"
  top: "rpn/output"
  param {
    lr_mult: 1
  }
  param {
    lr_mult: 2
  }
  convolution_param {
    num_output: 512
    pad: 1
    kernel_size: 3
    stride: 1
    weight_filler {
      type: "gaussian"
      std: 0.01
    }
    bias_filler {
      type: "constant"
      value: 0
    }
  }
}
layer {
  name: "rpn_relu/3x3"
  type: "ReLU"
  bottom: "rpn/output"
  top: "rpn/output"
}
layer {
  name: "rpn_cls_score"
  type: "Convolution"
  bottom: "rpn/output"
  top: "rpn_cls_score"
  param {
    lr_mult: 1
  }
  param {
    lr_mult: 2
  }
  convolution_param {
    num_output: 18
    pad: 0
    kernel_size: 1
    stride: 1
    weight_filler {
      type: "gaussian"
      std: 0.01
    }
    bias_filler {
      type: "constant"
      value: 0
    }
  }
}
layer {
  name: "rpn_bbox_pred"
  type: "Convolution"
  bottom: "rpn/output"
  top: "rpn_bbox_pred"
  param {
    lr_mult: 1
  }
  param {
    lr_mult: 2
  }
  convolution_param {
    num_output: 36
    pad: 0
    kernel_size: 1
    stride: 1
    weight_filler {
      type: "gaussian"
      std: 0.01
    }
    bias_filler {
      type: "constant"
      value: 0
    }
  }
}
layer {
  name: "rpn_cls_score_reshape"
  type: "Reshape"
  bottom: "rpn_cls_score"
  top: "rpn_cls_score_reshape"
  reshape_param {
    shape {
      dim: 0
      dim: 2
      dim: -1
      dim: 0
    }
  }
}
layer {
  name: "rpn-data"
  type: "Python"
  bottom: "rpn_cls_score"
  bottom: "gt_boxes"
  bottom: "im_info"
  bottom: "data"
  top: "rpn_labels"
  top: "rpn_bbox_targets"
  top: "rpn_bbox_inside_weights"
  top: "rpn_bbox_outside_weights"
  python_param {
    module: "rpn.anchor_target_layer"
    layer: "AnchorTargetLayer"
    param_str: "\'feat_stride\': 16"
  }
}
layer {
  name: "rpn_loss_cls"
  type: "SoftmaxWithLoss"
  bottom: "rpn_cls_score_reshape"
  bottom: "rpn_labels"
  top: "rpn_cls_loss"
  loss_weight: 1
  propagate_down: true
  propagate_down: false
  loss_param {
    ignore_label: -1
    normalize: true
  }
}
layer {
  name: "rpn_loss_bbox"
  type: "SmoothL1Loss"
  bottom: "rpn_bbox_pred"
  bottom: "rpn_bbox_targets"
  bottom: "rpn_bbox_inside_weights"
  bottom: "rpn_bbox_outside_weights"
  top: "rpn_loss_bbox"
  loss_weight: 1
  smooth_l1_loss_param {
    sigma: 3
  }
}
layer {
  name: "rpn_cls_prob"
  type: "Softmax"
  bottom: "rpn_cls_score_reshape"
  top: "rpn_cls_prob"
}
layer {
  name: "rpn_cls_prob_reshape"
  type: "Reshape"
  bottom: "rpn_cls_prob"
  top: "rpn_cls_prob_reshape"
  reshape_param {
    shape {
      dim: 0
      dim: 18
      dim: -1
      dim: 0
    }
  }
}
layer {
  name: "proposal"
  type: "Python"
  bottom: "rpn_cls_prob_reshape"
  bottom: "rpn_bbox_pred"
  bottom: "im_info"
  top: "rpn_rois"
  python_param {
    module: "rpn.proposal_layer"
    layer: "ProposalLayer"
    param_str: "\'feat_stride\': 16"
  }
}
layer {
  name: "roi-data"
  type: "Python"
  bottom: "rpn_rois"
  bottom: "gt_boxes"
  top: "rois"
  top: "labels"
  top: "bbox_targets"
  top: "bbox_inside_weights"
  top: "bbox_outside_weights"
  python_param {
    module: "rpn.proposal_target_layer"
    layer: "ProposalTargetLayer"
    param_str: "\'num_classes\': 2"
  }
}
layer {
  name: "roi_pool5"
  type: "ROIPooling"
  bottom: "conv5_3"
  bottom: "rois"
  top: "pool5"
  roi_pooling_param {
    pooled_h: 7
    pooled_w: 7
    spatial_scale: 0.0625
  }
}
layer {
  name: "fc6"
  type: "InnerProduct"
  bottom: "pool5"
  top: "fc6"
  param {
    lr_mult: 1
  }
  param {
    lr_mult: 2
  }
  inner_product_param {
    num_output: 4096
  }
}
layer {
  name: "relu6"
  type: "ReLU"
  bottom: "fc6"
  top: "fc6"
}
layer {
  name: "drop6"
  type: "Dropout"
  bottom: "fc6"
  top: "fc6"
  dropout_param {
    dropout_ratio: 0.5
  }
}
layer {
  name: "fc7"
  type: "InnerProduct"
  bottom: "fc6"
  top: "fc7"
  param {
    lr_mult: 1
  }
  param {
    lr_mult: 2
  }
  inner_product_param {
    num_output: 4096
  }
}
layer {
  name: "relu7"
  type: "ReLU"
  bottom: "fc7"
  top: "fc7"
}
layer {
  name: "drop7"
  type: "Dropout"
  bottom: "fc7"
  top: "fc7"
  dropout_param {
    dropout_ratio: 0.5
  }
}
layer {
  name: "cls_score"
  type: "InnerProduct"
  bottom: "fc7"
  top: "cls_score"
  param {
    lr_mult: 1
  }
  param {
    lr_mult: 2
  }
  inner_product_param {
    num_output: 2
    weight_filler {
      type: "gaussian"
      std: 0.01
    }
    bias_filler {
      type: "constant"
      value: 0
    }
  }
}
layer {
  name: "bbox_pred"
  type: "InnerProduct"
  bottom: "fc7"
  top: "bbox_pred"
  param {
    lr_mult: 1
  }
  param {
    lr_mult: 2
  }
  inner_product_param {
    num_output: 8
    weight_filler {
      type: "gaussian"
      std: 0.001
    }
    bias_filler {
      type: "constant"
      value: 0
    }
  }
}
layer {
  name: "loss_cls"
  type: "SoftmaxWithLoss"
  bottom: "cls_score"
  bottom: "labels"
  top: "loss_cls"
  loss_weight: 1
  propagate_down: true
  propagate_down: false
}
layer {
  name: "loss_bbox"
  type: "SmoothL1Loss"
  bottom: "bbox_pred"
  bottom: "bbox_targets"
  bottom: "bbox_inside_weights"
  bottom: "bbox_outside_weights"
  top: "loss_bbox"
  loss_weight: 1
}
layer {
  name: "accuracy"
  type: "Accuracy"
  bottom: "cls_score"
  bottom: "labels"
  top: "accuracy"
}
I0921 14:39:18.460662 25129 layer_factory.hpp:77] Creating layer input-data
I0921 14:39:18.463474 25129 net.cpp:106] Creating Layer input-data
I0921 14:39:18.463485 25129 net.cpp:411] input-data -> data
I0921 14:39:18.463492 25129 net.cpp:411] input-data -> im_info
I0921 14:39:18.463497 25129 net.cpp:411] input-data -> gt_boxes
RoiDataLayer: name_to_top: {'gt_boxes': 2, 'data': 0, 'im_info': 1}
I0921 14:39:18.469923 25129 net.cpp:150] Setting up input-data
I0921 14:39:18.469931 25129 net.cpp:157] Top shape: 1 3 300 1000 (900000)
I0921 14:39:18.469945 25129 net.cpp:157] Top shape: 1 3 (3)
I0921 14:39:18.469949 25129 net.cpp:157] Top shape: 1 4 (4)
I0921 14:39:18.469950 25129 net.cpp:165] Memory required for data: 3600028
I0921 14:39:18.469954 25129 layer_factory.hpp:77] Creating layer data_input-data_0_split
I0921 14:39:18.469964 25129 net.cpp:106] Creating Layer data_input-data_0_split
I0921 14:39:18.469974 25129 net.cpp:454] data_input-data_0_split <- data
I0921 14:39:18.469980 25129 net.cpp:411] data_input-data_0_split -> data_input-data_0_split_0
I0921 14:39:18.469992 25129 net.cpp:411] data_input-data_0_split -> data_input-data_0_split_1
I0921 14:39:18.470019 25129 net.cpp:150] Setting up data_input-data_0_split
I0921 14:39:18.470026 25129 net.cpp:157] Top shape: 1 3 300 1000 (900000)
I0921 14:39:18.470028 25129 net.cpp:157] Top shape: 1 3 300 1000 (900000)
I0921 14:39:18.470031 25129 net.cpp:165] Memory required for data: 10800028
I0921 14:39:18.470032 25129 layer_factory.hpp:77] Creating layer im_info_input-data_1_split
I0921 14:39:18.470036 25129 net.cpp:106] Creating Layer im_info_input-data_1_split
I0921 14:39:18.470039 25129 net.cpp:454] im_info_input-data_1_split <- im_info
I0921 14:39:18.470043 25129 net.cpp:411] im_info_input-data_1_split -> im_info_input-data_1_split_0
I0921 14:39:18.470047 25129 net.cpp:411] im_info_input-data_1_split -> im_info_input-data_1_split_1
I0921 14:39:18.470068 25129 net.cpp:150] Setting up im_info_input-data_1_split
I0921 14:39:18.470074 25129 net.cpp:157] Top shape: 1 3 (3)
I0921 14:39:18.470077 25129 net.cpp:157] Top shape: 1 3 (3)
I0921 14:39:18.470078 25129 net.cpp:165] Memory required for data: 10800052
I0921 14:39:18.470080 25129 layer_factory.hpp:77] Creating layer gt_boxes_input-data_2_split
I0921 14:39:18.470083 25129 net.cpp:106] Creating Layer gt_boxes_input-data_2_split
I0921 14:39:18.470087 25129 net.cpp:454] gt_boxes_input-data_2_split <- gt_boxes
I0921 14:39:18.470090 25129 net.cpp:411] gt_boxes_input-data_2_split -> gt_boxes_input-data_2_split_0
I0921 14:39:18.470094 25129 net.cpp:411] gt_boxes_input-data_2_split -> gt_boxes_input-data_2_split_1
I0921 14:39:18.470114 25129 net.cpp:150] Setting up gt_boxes_input-data_2_split
I0921 14:39:18.470118 25129 net.cpp:157] Top shape: 1 4 (4)
I0921 14:39:18.470121 25129 net.cpp:157] Top shape: 1 4 (4)
I0921 14:39:18.470124 25129 net.cpp:165] Memory required for data: 10800084
I0921 14:39:18.470125 25129 layer_factory.hpp:77] Creating layer conv1_1
I0921 14:39:18.470131 25129 net.cpp:106] Creating Layer conv1_1
I0921 14:39:18.470134 25129 net.cpp:454] conv1_1 <- data_input-data_0_split_0
I0921 14:39:18.470139 25129 net.cpp:411] conv1_1 -> conv1_1
I0921 14:39:18.471369 25129 net.cpp:150] Setting up conv1_1
I0921 14:39:18.471380 25129 net.cpp:157] Top shape: 1 64 300 1000 (19200000)
I0921 14:39:18.471384 25129 net.cpp:165] Memory required for data: 87600084
I0921 14:39:18.471391 25129 layer_factory.hpp:77] Creating layer relu1_1
I0921 14:39:18.471397 25129 net.cpp:106] Creating Layer relu1_1
I0921 14:39:18.471400 25129 net.cpp:454] relu1_1 <- conv1_1
I0921 14:39:18.471403 25129 net.cpp:397] relu1_1 -> conv1_1 (in-place)
I0921 14:39:18.471408 25129 net.cpp:150] Setting up relu1_1
I0921 14:39:18.471411 25129 net.cpp:157] Top shape: 1 64 300 1000 (19200000)
I0921 14:39:18.471415 25129 net.cpp:165] Memory required for data: 164400084
I0921 14:39:18.471416 25129 layer_factory.hpp:77] Creating layer conv1_2
I0921 14:39:18.471422 25129 net.cpp:106] Creating Layer conv1_2
I0921 14:39:18.471426 25129 net.cpp:454] conv1_2 <- conv1_1
I0921 14:39:18.471429 25129 net.cpp:411] conv1_2 -> conv1_2
I0921 14:39:18.472654 25129 net.cpp:150] Setting up conv1_2
I0921 14:39:18.472668 25129 net.cpp:157] Top shape: 1 64 300 1000 (19200000)
I0921 14:39:18.472673 25129 net.cpp:165] Memory required for data: 241200084
I0921 14:39:18.472684 25129 layer_factory.hpp:77] Creating layer relu1_2
I0921 14:39:18.472694 25129 net.cpp:106] Creating Layer relu1_2
I0921 14:39:18.472702 25129 net.cpp:454] relu1_2 <- conv1_2
I0921 14:39:18.472708 25129 net.cpp:397] relu1_2 -> conv1_2 (in-place)
I0921 14:39:18.472718 25129 net.cpp:150] Setting up relu1_2
I0921 14:39:18.472723 25129 net.cpp:157] Top shape: 1 64 300 1000 (19200000)
I0921 14:39:18.472724 25129 net.cpp:165] Memory required for data: 318000084
I0921 14:39:18.472728 25129 layer_factory.hpp:77] Creating layer pool1
I0921 14:39:18.472734 25129 net.cpp:106] Creating Layer pool1
I0921 14:39:18.472738 25129 net.cpp:454] pool1 <- conv1_2
I0921 14:39:18.472743 25129 net.cpp:411] pool1 -> pool1
I0921 14:39:18.472779 25129 net.cpp:150] Setting up pool1
I0921 14:39:18.472785 25129 net.cpp:157] Top shape: 1 64 150 500 (4800000)
I0921 14:39:18.472787 25129 net.cpp:165] Memory required for data: 337200084
I0921 14:39:18.472790 25129 layer_factory.hpp:77] Creating layer conv2_1
I0921 14:39:18.472795 25129 net.cpp:106] Creating Layer conv2_1
I0921 14:39:18.472796 25129 net.cpp:454] conv2_1 <- pool1
I0921 14:39:18.472801 25129 net.cpp:411] conv2_1 -> conv2_1
I0921 14:39:18.473433 25129 net.cpp:150] Setting up conv2_1
I0921 14:39:18.473443 25129 net.cpp:157] Top shape: 1 128 150 500 (9600000)
I0921 14:39:18.473445 25129 net.cpp:165] Memory required for data: 375600084
I0921 14:39:18.473453 25129 layer_factory.hpp:77] Creating layer relu2_1
I0921 14:39:18.473474 25129 net.cpp:106] Creating Layer relu2_1
I0921 14:39:18.473477 25129 net.cpp:454] relu2_1 <- conv2_1
I0921 14:39:18.473481 25129 net.cpp:397] relu2_1 -> conv2_1 (in-place)
I0921 14:39:18.473487 25129 net.cpp:150] Setting up relu2_1
I0921 14:39:18.473491 25129 net.cpp:157] Top shape: 1 128 150 500 (9600000)
I0921 14:39:18.473493 25129 net.cpp:165] Memory required for data: 414000084
I0921 14:39:18.473496 25129 layer_factory.hpp:77] Creating layer conv2_2
I0921 14:39:18.473500 25129 net.cpp:106] Creating Layer conv2_2
I0921 14:39:18.473503 25129 net.cpp:454] conv2_2 <- conv2_1
I0921 14:39:18.473507 25129 net.cpp:411] conv2_2 -> conv2_2
I0921 14:39:18.474225 25129 net.cpp:150] Setting up conv2_2
I0921 14:39:18.474236 25129 net.cpp:157] Top shape: 1 128 150 500 (9600000)
I0921 14:39:18.474239 25129 net.cpp:165] Memory required for data: 452400084
I0921 14:39:18.474244 25129 layer_factory.hpp:77] Creating layer relu2_2
I0921 14:39:18.474248 25129 net.cpp:106] Creating Layer relu2_2
I0921 14:39:18.474251 25129 net.cpp:454] relu2_2 <- conv2_2
I0921 14:39:18.474256 25129 net.cpp:397] relu2_2 -> conv2_2 (in-place)
I0921 14:39:18.474261 25129 net.cpp:150] Setting up relu2_2
I0921 14:39:18.474263 25129 net.cpp:157] Top shape: 1 128 150 500 (9600000)
I0921 14:39:18.474267 25129 net.cpp:165] Memory required for data: 490800084
I0921 14:39:18.474268 25129 layer_factory.hpp:77] Creating layer pool2
I0921 14:39:18.474272 25129 net.cpp:106] Creating Layer pool2
I0921 14:39:18.474274 25129 net.cpp:454] pool2 <- conv2_2
I0921 14:39:18.474279 25129 net.cpp:411] pool2 -> pool2
I0921 14:39:18.474304 25129 net.cpp:150] Setting up pool2
I0921 14:39:18.474309 25129 net.cpp:157] Top shape: 1 128 75 250 (2400000)
I0921 14:39:18.474313 25129 net.cpp:165] Memory required for data: 500400084
I0921 14:39:18.474314 25129 layer_factory.hpp:77] Creating layer conv3_1
I0921 14:39:18.474320 25129 net.cpp:106] Creating Layer conv3_1
I0921 14:39:18.474323 25129 net.cpp:454] conv3_1 <- pool2
I0921 14:39:18.474328 25129 net.cpp:411] conv3_1 -> conv3_1
I0921 14:39:18.475131 25129 net.cpp:150] Setting up conv3_1
I0921 14:39:18.475142 25129 net.cpp:157] Top shape: 1 256 75 250 (4800000)
I0921 14:39:18.475145 25129 net.cpp:165] Memory required for data: 519600084
I0921 14:39:18.475152 25129 layer_factory.hpp:77] Creating layer relu3_1
I0921 14:39:18.475158 25129 net.cpp:106] Creating Layer relu3_1
I0921 14:39:18.475162 25129 net.cpp:454] relu3_1 <- conv3_1
I0921 14:39:18.475165 25129 net.cpp:397] relu3_1 -> conv3_1 (in-place)
I0921 14:39:18.475170 25129 net.cpp:150] Setting up relu3_1
I0921 14:39:18.475173 25129 net.cpp:157] Top shape: 1 256 75 250 (4800000)
I0921 14:39:18.475175 25129 net.cpp:165] Memory required for data: 538800084
I0921 14:39:18.475178 25129 layer_factory.hpp:77] Creating layer conv3_2
I0921 14:39:18.475184 25129 net.cpp:106] Creating Layer conv3_2
I0921 14:39:18.475188 25129 net.cpp:454] conv3_2 <- conv3_1
I0921 14:39:18.475191 25129 net.cpp:411] conv3_2 -> conv3_2
I0921 14:39:18.476440 25129 net.cpp:150] Setting up conv3_2
I0921 14:39:18.476451 25129 net.cpp:157] Top shape: 1 256 75 250 (4800000)
I0921 14:39:18.476454 25129 net.cpp:165] Memory required for data: 558000084
I0921 14:39:18.476459 25129 layer_factory.hpp:77] Creating layer relu3_2
I0921 14:39:18.476462 25129 net.cpp:106] Creating Layer relu3_2
I0921 14:39:18.476465 25129 net.cpp:454] relu3_2 <- conv3_2
I0921 14:39:18.476469 25129 net.cpp:397] relu3_2 -> conv3_2 (in-place)
I0921 14:39:18.476475 25129 net.cpp:150] Setting up relu3_2
I0921 14:39:18.476477 25129 net.cpp:157] Top shape: 1 256 75 250 (4800000)
I0921 14:39:18.476480 25129 net.cpp:165] Memory required for data: 577200084
I0921 14:39:18.476481 25129 layer_factory.hpp:77] Creating layer conv3_3
I0921 14:39:18.476500 25129 net.cpp:106] Creating Layer conv3_3
I0921 14:39:18.476510 25129 net.cpp:454] conv3_3 <- conv3_2
I0921 14:39:18.476512 25129 net.cpp:411] conv3_3 -> conv3_3
I0921 14:39:18.477736 25129 net.cpp:150] Setting up conv3_3
I0921 14:39:18.477747 25129 net.cpp:157] Top shape: 1 256 75 250 (4800000)
I0921 14:39:18.477761 25129 net.cpp:165] Memory required for data: 596400084
I0921 14:39:18.477766 25129 layer_factory.hpp:77] Creating layer relu3_3
I0921 14:39:18.477782 25129 net.cpp:106] Creating Layer relu3_3
I0921 14:39:18.477783 25129 net.cpp:454] relu3_3 <- conv3_3
I0921 14:39:18.477787 25129 net.cpp:397] relu3_3 -> conv3_3 (in-place)
I0921 14:39:18.477802 25129 net.cpp:150] Setting up relu3_3
I0921 14:39:18.477807 25129 net.cpp:157] Top shape: 1 256 75 250 (4800000)
I0921 14:39:18.477808 25129 net.cpp:165] Memory required for data: 615600084
I0921 14:39:18.477810 25129 layer_factory.hpp:77] Creating layer pool3
I0921 14:39:18.477815 25129 net.cpp:106] Creating Layer pool3
I0921 14:39:18.477818 25129 net.cpp:454] pool3 <- conv3_3
I0921 14:39:18.477820 25129 net.cpp:411] pool3 -> pool3
I0921 14:39:18.477847 25129 net.cpp:150] Setting up pool3
I0921 14:39:18.477854 25129 net.cpp:157] Top shape: 1 256 38 125 (1216000)
I0921 14:39:18.477855 25129 net.cpp:165] Memory required for data: 620464084
I0921 14:39:18.477857 25129 layer_factory.hpp:77] Creating layer conv4_1
I0921 14:39:18.477867 25129 net.cpp:106] Creating Layer conv4_1
I0921 14:39:18.477872 25129 net.cpp:454] conv4_1 <- pool3
I0921 14:39:18.477876 25129 net.cpp:411] conv4_1 -> conv4_1
I0921 14:39:18.480840 25129 net.cpp:150] Setting up conv4_1
I0921 14:39:18.480851 25129 net.cpp:157] Top shape: 1 512 38 125 (2432000)
I0921 14:39:18.480865 25129 net.cpp:165] Memory required for data: 630192084
I0921 14:39:18.480870 25129 layer_factory.hpp:77] Creating layer relu4_1
I0921 14:39:18.480886 25129 net.cpp:106] Creating Layer relu4_1
I0921 14:39:18.480890 25129 net.cpp:454] relu4_1 <- conv4_1
I0921 14:39:18.480893 25129 net.cpp:397] relu4_1 -> conv4_1 (in-place)
I0921 14:39:18.480908 25129 net.cpp:150] Setting up relu4_1
I0921 14:39:18.480912 25129 net.cpp:157] Top shape: 1 512 38 125 (2432000)
I0921 14:39:18.480914 25129 net.cpp:165] Memory required for data: 639920084
I0921 14:39:18.480916 25129 layer_factory.hpp:77] Creating layer conv4_2
I0921 14:39:18.480921 25129 net.cpp:106] Creating Layer conv4_2
I0921 14:39:18.480923 25129 net.cpp:454] conv4_2 <- conv4_1
I0921 14:39:18.480928 25129 net.cpp:411] conv4_2 -> conv4_2
I0921 14:39:18.484755 25129 net.cpp:150] Setting up conv4_2
I0921 14:39:18.484768 25129 net.cpp:157] Top shape: 1 512 38 125 (2432000)
I0921 14:39:18.484771 25129 net.cpp:165] Memory required for data: 649648084
I0921 14:39:18.484781 25129 layer_factory.hpp:77] Creating layer relu4_2
I0921 14:39:18.484786 25129 net.cpp:106] Creating Layer relu4_2
I0921 14:39:18.484791 25129 net.cpp:454] relu4_2 <- conv4_2
I0921 14:39:18.484794 25129 net.cpp:397] relu4_2 -> conv4_2 (in-place)
I0921 14:39:18.484799 25129 net.cpp:150] Setting up relu4_2
I0921 14:39:18.484814 25129 net.cpp:157] Top shape: 1 512 38 125 (2432000)
I0921 14:39:18.484817 25129 net.cpp:165] Memory required for data: 659376084
I0921 14:39:18.484818 25129 layer_factory.hpp:77] Creating layer conv4_3
I0921 14:39:18.484823 25129 net.cpp:106] Creating Layer conv4_3
I0921 14:39:18.484833 25129 net.cpp:454] conv4_3 <- conv4_2
I0921 14:39:18.484838 25129 net.cpp:411] conv4_3 -> conv4_3
I0921 14:39:18.488698 25129 net.cpp:150] Setting up conv4_3
I0921 14:39:18.488711 25129 net.cpp:157] Top shape: 1 512 38 125 (2432000)
I0921 14:39:18.488714 25129 net.cpp:165] Memory required for data: 669104084
I0921 14:39:18.488719 25129 layer_factory.hpp:77] Creating layer relu4_3
I0921 14:39:18.488724 25129 net.cpp:106] Creating Layer relu4_3
I0921 14:39:18.488726 25129 net.cpp:454] relu4_3 <- conv4_3
I0921 14:39:18.488731 25129 net.cpp:397] relu4_3 -> conv4_3 (in-place)
I0921 14:39:18.488737 25129 net.cpp:150] Setting up relu4_3
I0921 14:39:18.488740 25129 net.cpp:157] Top shape: 1 512 38 125 (2432000)
I0921 14:39:18.488741 25129 net.cpp:165] Memory required for data: 678832084
I0921 14:39:18.488744 25129 layer_factory.hpp:77] Creating layer pool4
I0921 14:39:18.488759 25129 net.cpp:106] Creating Layer pool4
I0921 14:39:18.488761 25129 net.cpp:454] pool4 <- conv4_3
I0921 14:39:18.488766 25129 net.cpp:411] pool4 -> pool4
I0921 14:39:18.488793 25129 net.cpp:150] Setting up pool4
I0921 14:39:18.488801 25129 net.cpp:157] Top shape: 1 512 19 63 (612864)
I0921 14:39:18.488802 25129 net.cpp:165] Memory required for data: 681283540
I0921 14:39:18.488804 25129 layer_factory.hpp:77] Creating layer conv5_1
I0921 14:39:18.488809 25129 net.cpp:106] Creating Layer conv5_1
I0921 14:39:18.488811 25129 net.cpp:454] conv5_1 <- pool4
I0921 14:39:18.488817 25129 net.cpp:411] conv5_1 -> conv5_1
I0921 14:39:18.492555 25129 net.cpp:150] Setting up conv5_1
I0921 14:39:18.492568 25129 net.cpp:157] Top shape: 1 512 19 63 (612864)
I0921 14:39:18.492570 25129 net.cpp:165] Memory required for data: 683734996
I0921 14:39:18.492575 25129 layer_factory.hpp:77] Creating layer relu5_1
I0921 14:39:18.492580 25129 net.cpp:106] Creating Layer relu5_1
I0921 14:39:18.492583 25129 net.cpp:454] relu5_1 <- conv5_1
I0921 14:39:18.492588 25129 net.cpp:397] relu5_1 -> conv5_1 (in-place)
I0921 14:39:18.492593 25129 net.cpp:150] Setting up relu5_1
I0921 14:39:18.492595 25129 net.cpp:157] Top shape: 1 512 19 63 (612864)
I0921 14:39:18.492597 25129 net.cpp:165] Memory required for data: 686186452
I0921 14:39:18.492599 25129 layer_factory.hpp:77] Creating layer conv5_2
I0921 14:39:18.492617 25129 net.cpp:106] Creating Layer conv5_2
I0921 14:39:18.492619 25129 net.cpp:454] conv5_2 <- conv5_1
I0921 14:39:18.492622 25129 net.cpp:411] conv5_2 -> conv5_2
I0921 14:39:18.496310 25129 net.cpp:150] Setting up conv5_2
I0921 14:39:18.496323 25129 net.cpp:157] Top shape: 1 512 19 63 (612864)
I0921 14:39:18.496326 25129 net.cpp:165] Memory required for data: 688637908
I0921 14:39:18.496331 25129 layer_factory.hpp:77] Creating layer relu5_2
I0921 14:39:18.496336 25129 net.cpp:106] Creating Layer relu5_2
I0921 14:39:18.496338 25129 net.cpp:454] relu5_2 <- conv5_2
I0921 14:39:18.496342 25129 net.cpp:397] relu5_2 -> conv5_2 (in-place)
I0921 14:39:18.496346 25129 net.cpp:150] Setting up relu5_2
I0921 14:39:18.496350 25129 net.cpp:157] Top shape: 1 512 19 63 (612864)
I0921 14:39:18.496351 25129 net.cpp:165] Memory required for data: 691089364
I0921 14:39:18.496353 25129 layer_factory.hpp:77] Creating layer conv5_3
I0921 14:39:18.496374 25129 net.cpp:106] Creating Layer conv5_3
I0921 14:39:18.496381 25129 net.cpp:454] conv5_3 <- conv5_2
I0921 14:39:18.496386 25129 net.cpp:411] conv5_3 -> conv5_3
I0921 14:39:18.500157 25129 net.cpp:150] Setting up conv5_3
I0921 14:39:18.500170 25129 net.cpp:157] Top shape: 1 512 19 63 (612864)
I0921 14:39:18.500174 25129 net.cpp:165] Memory required for data: 693540820
I0921 14:39:18.500179 25129 layer_factory.hpp:77] Creating layer relu5_3
I0921 14:39:18.500182 25129 net.cpp:106] Creating Layer relu5_3
I0921 14:39:18.500185 25129 net.cpp:454] relu5_3 <- conv5_3
I0921 14:39:18.500188 25129 net.cpp:397] relu5_3 -> conv5_3 (in-place)
I0921 14:39:18.500195 25129 net.cpp:150] Setting up relu5_3
I0921 14:39:18.500197 25129 net.cpp:157] Top shape: 1 512 19 63 (612864)
I0921 14:39:18.500198 25129 net.cpp:165] Memory required for data: 695992276
I0921 14:39:18.500200 25129 layer_factory.hpp:77] Creating layer conv5_3_relu5_3_0_split
I0921 14:39:18.500216 25129 net.cpp:106] Creating Layer conv5_3_relu5_3_0_split
I0921 14:39:18.500218 25129 net.cpp:454] conv5_3_relu5_3_0_split <- conv5_3
I0921 14:39:18.500222 25129 net.cpp:411] conv5_3_relu5_3_0_split -> conv5_3_relu5_3_0_split_0
I0921 14:39:18.500227 25129 net.cpp:411] conv5_3_relu5_3_0_split -> conv5_3_relu5_3_0_split_1
I0921 14:39:18.500253 25129 net.cpp:150] Setting up conv5_3_relu5_3_0_split
I0921 14:39:18.500258 25129 net.cpp:157] Top shape: 1 512 19 63 (612864)
I0921 14:39:18.500262 25129 net.cpp:157] Top shape: 1 512 19 63 (612864)
I0921 14:39:18.500263 25129 net.cpp:165] Memory required for data: 700895188
I0921 14:39:18.500265 25129 layer_factory.hpp:77] Creating layer rpn_conv/3x3
I0921 14:39:18.500275 25129 net.cpp:106] Creating Layer rpn_conv/3x3
I0921 14:39:18.500279 25129 net.cpp:454] rpn_conv/3x3 <- conv5_3_relu5_3_0_split_0
I0921 14:39:18.500283 25129 net.cpp:411] rpn_conv/3x3 -> rpn/output
I0921 14:39:18.560333 25129 net.cpp:150] Setting up rpn_conv/3x3
I0921 14:39:18.560345 25129 net.cpp:157] Top shape: 1 512 19 63 (612864)
I0921 14:39:18.560348 25129 net.cpp:165] Memory required for data: 703346644
I0921 14:39:18.560353 25129 layer_factory.hpp:77] Creating layer rpn_relu/3x3
I0921 14:39:18.560359 25129 net.cpp:106] Creating Layer rpn_relu/3x3
I0921 14:39:18.560361 25129 net.cpp:454] rpn_relu/3x3 <- rpn/output
I0921 14:39:18.560364 25129 net.cpp:397] rpn_relu/3x3 -> rpn/output (in-place)
I0921 14:39:18.560369 25129 net.cpp:150] Setting up rpn_relu/3x3
I0921 14:39:18.560372 25129 net.cpp:157] Top shape: 1 512 19 63 (612864)
I0921 14:39:18.560374 25129 net.cpp:165] Memory required for data: 705798100
I0921 14:39:18.560376 25129 layer_factory.hpp:77] Creating layer rpn/output_rpn_relu/3x3_0_split
I0921 14:39:18.560380 25129 net.cpp:106] Creating Layer rpn/output_rpn_relu/3x3_0_split
I0921 14:39:18.560394 25129 net.cpp:454] rpn/output_rpn_relu/3x3_0_split <- rpn/output
I0921 14:39:18.560398 25129 net.cpp:411] rpn/output_rpn_relu/3x3_0_split -> rpn/output_rpn_relu/3x3_0_split_0
I0921 14:39:18.560402 25129 net.cpp:411] rpn/output_rpn_relu/3x3_0_split -> rpn/output_rpn_relu/3x3_0_split_1
I0921 14:39:18.560427 25129 net.cpp:150] Setting up rpn/output_rpn_relu/3x3_0_split
I0921 14:39:18.560433 25129 net.cpp:157] Top shape: 1 512 19 63 (612864)
I0921 14:39:18.560436 25129 net.cpp:157] Top shape: 1 512 19 63 (612864)
I0921 14:39:18.560438 25129 net.cpp:165] Memory required for data: 710701012
I0921 14:39:18.560441 25129 layer_factory.hpp:77] Creating layer rpn_cls_score
I0921 14:39:18.560449 25129 net.cpp:106] Creating Layer rpn_cls_score
I0921 14:39:18.560453 25129 net.cpp:454] rpn_cls_score <- rpn/output_rpn_relu/3x3_0_split_0
I0921 14:39:18.560462 25129 net.cpp:411] rpn_cls_score -> rpn_cls_score
I0921 14:39:18.560880 25129 net.cpp:150] Setting up rpn_cls_score
I0921 14:39:18.560886 25129 net.cpp:157] Top shape: 1 18 19 63 (21546)
I0921 14:39:18.560889 25129 net.cpp:165] Memory required for data: 710787196
I0921 14:39:18.560892 25129 layer_factory.hpp:77] Creating layer rpn_cls_score_rpn_cls_score_0_split
I0921 14:39:18.560896 25129 net.cpp:106] Creating Layer rpn_cls_score_rpn_cls_score_0_split
I0921 14:39:18.560910 25129 net.cpp:454] rpn_cls_score_rpn_cls_score_0_split <- rpn_cls_score
I0921 14:39:18.560914 25129 net.cpp:411] rpn_cls_score_rpn_cls_score_0_split -> rpn_cls_score_rpn_cls_score_0_split_0
I0921 14:39:18.560922 25129 net.cpp:411] rpn_cls_score_rpn_cls_score_0_split -> rpn_cls_score_rpn_cls_score_0_split_1
I0921 14:39:18.560955 25129 net.cpp:150] Setting up rpn_cls_score_rpn_cls_score_0_split
I0921 14:39:18.560961 25129 net.cpp:157] Top shape: 1 18 19 63 (21546)
I0921 14:39:18.560963 25129 net.cpp:157] Top shape: 1 18 19 63 (21546)
I0921 14:39:18.560966 25129 net.cpp:165] Memory required for data: 710959564
I0921 14:39:18.560967 25129 layer_factory.hpp:77] Creating layer rpn_bbox_pred
I0921 14:39:18.560976 25129 net.cpp:106] Creating Layer rpn_bbox_pred
I0921 14:39:18.560977 25129 net.cpp:454] rpn_bbox_pred <- rpn/output_rpn_relu/3x3_0_split_1
I0921 14:39:18.560981 25129 net.cpp:411] rpn_bbox_pred -> rpn_bbox_pred
I0921 14:39:18.561621 25129 net.cpp:150] Setting up rpn_bbox_pred
I0921 14:39:18.561627 25129 net.cpp:157] Top shape: 1 36 19 63 (43092)
I0921 14:39:18.561630 25129 net.cpp:165] Memory required for data: 711131932
I0921 14:39:18.561635 25129 layer_factory.hpp:77] Creating layer rpn_bbox_pred_rpn_bbox_pred_0_split
I0921 14:39:18.561648 25129 net.cpp:106] Creating Layer rpn_bbox_pred_rpn_bbox_pred_0_split
I0921 14:39:18.561655 25129 net.cpp:454] rpn_bbox_pred_rpn_bbox_pred_0_split <- rpn_bbox_pred
I0921 14:39:18.561658 25129 net.cpp:411] rpn_bbox_pred_rpn_bbox_pred_0_split -> rpn_bbox_pred_rpn_bbox_pred_0_split_0
I0921 14:39:18.561662 25129 net.cpp:411] rpn_bbox_pred_rpn_bbox_pred_0_split -> rpn_bbox_pred_rpn_bbox_pred_0_split_1
I0921 14:39:18.561688 25129 net.cpp:150] Setting up rpn_bbox_pred_rpn_bbox_pred_0_split
I0921 14:39:18.561693 25129 net.cpp:157] Top shape: 1 36 19 63 (43092)
I0921 14:39:18.561697 25129 net.cpp:157] Top shape: 1 36 19 63 (43092)
I0921 14:39:18.561698 25129 net.cpp:165] Memory required for data: 711476668
I0921 14:39:18.561700 25129 layer_factory.hpp:77] Creating layer rpn_cls_score_reshape
I0921 14:39:18.561712 25129 net.cpp:106] Creating Layer rpn_cls_score_reshape
I0921 14:39:18.561713 25129 net.cpp:454] rpn_cls_score_reshape <- rpn_cls_score_rpn_cls_score_0_split_0
I0921 14:39:18.561719 25129 net.cpp:411] rpn_cls_score_reshape -> rpn_cls_score_reshape
I0921 14:39:18.561738 25129 net.cpp:150] Setting up rpn_cls_score_reshape
I0921 14:39:18.561743 25129 net.cpp:157] Top shape: 1 2 171 63 (21546)
I0921 14:39:18.561745 25129 net.cpp:165] Memory required for data: 711562852
I0921 14:39:18.561748 25129 layer_factory.hpp:77] Creating layer rpn_cls_score_reshape_rpn_cls_score_reshape_0_split
I0921 14:39:18.561750 25129 net.cpp:106] Creating Layer rpn_cls_score_reshape_rpn_cls_score_reshape_0_split
I0921 14:39:18.561753 25129 net.cpp:454] rpn_cls_score_reshape_rpn_cls_score_reshape_0_split <- rpn_cls_score_reshape
I0921 14:39:18.561756 25129 net.cpp:411] rpn_cls_score_reshape_rpn_cls_score_reshape_0_split -> rpn_cls_score_reshape_rpn_cls_score_reshape_0_split_0
I0921 14:39:18.561764 25129 net.cpp:411] rpn_cls_score_reshape_rpn_cls_score_reshape_0_split -> rpn_cls_score_reshape_rpn_cls_score_reshape_0_split_1
I0921 14:39:18.561786 25129 net.cpp:150] Setting up rpn_cls_score_reshape_rpn_cls_score_reshape_0_split
I0921 14:39:18.561791 25129 net.cpp:157] Top shape: 1 2 171 63 (21546)
I0921 14:39:18.561794 25129 net.cpp:157] Top shape: 1 2 171 63 (21546)
I0921 14:39:18.561796 25129 net.cpp:165] Memory required for data: 711735220
I0921 14:39:18.561799 25129 layer_factory.hpp:77] Creating layer rpn-data
I0921 14:39:18.562177 25129 net.cpp:106] Creating Layer rpn-data
I0921 14:39:18.562187 25129 net.cpp:454] rpn-data <- rpn_cls_score_rpn_cls_score_0_split_1
I0921 14:39:18.562191 25129 net.cpp:454] rpn-data <- gt_boxes_input-data_2_split_0
I0921 14:39:18.562196 25129 net.cpp:454] rpn-data <- im_info_input-data_1_split_0
I0921 14:39:18.562198 25129 net.cpp:454] rpn-data <- data_input-data_0_split_1
I0921 14:39:18.562202 25129 net.cpp:411] rpn-data -> rpn_labels
I0921 14:39:18.562208 25129 net.cpp:411] rpn-data -> rpn_bbox_targets
I0921 14:39:18.562213 25129 net.cpp:411] rpn-data -> rpn_bbox_inside_weights
I0921 14:39:18.562218 25129 net.cpp:411] rpn-data -> rpn_bbox_outside_weights
anchors:
[[ -84.  -40.   99.   55.]
 [-176.  -88.  191.  103.]
 [-360. -184.  375.  199.]
 [ -56.  -56.   71.   71.]
 [-120. -120.  135.  135.]
 [-248. -248.  263.  263.]
 [ -36.  -80.   51.   95.]
 [ -80. -168.   95.  183.]
 [-168. -344.  183.  359.]]
anchor shapes:
[[ 183.   95.]
 [ 367.  191.]
 [ 735.  383.]
 [ 127.  127.]
 [ 255.  255.]
 [ 511.  511.]
 [  87.  175.]
 [ 175.  351.]
 [ 351.  703.]]
AnchorTargetLayer: height 19 width 63
I0921 14:39:18.564071 25129 net.cpp:150] Setting up rpn-data
I0921 14:39:18.564081 25129 net.cpp:157] Top shape: 1 1 171 63 (10773)
I0921 14:39:18.564085 25129 net.cpp:157] Top shape: 1 36 19 63 (43092)
I0921 14:39:18.564087 25129 net.cpp:157] Top shape: 1 36 19 63 (43092)
I0921 14:39:18.564090 25129 net.cpp:157] Top shape: 1 36 19 63 (43092)
I0921 14:39:18.564092 25129 net.cpp:165] Memory required for data: 712295416
I0921 14:39:18.564095 25129 layer_factory.hpp:77] Creating layer rpn_loss_cls
I0921 14:39:18.564101 25129 net.cpp:106] Creating Layer rpn_loss_cls
I0921 14:39:18.564105 25129 net.cpp:454] rpn_loss_cls <- rpn_cls_score_reshape_rpn_cls_score_reshape_0_split_0
I0921 14:39:18.564108 25129 net.cpp:454] rpn_loss_cls <- rpn_labels
…
I0921 14:39:18.564522 25129 net.cpp:157] Top shape: (1)
I0921 14:39:18.564523 25129 net.cpp:160]     with loss weight 1
I0921 14:39:18.564527 25129 net.cpp:165] Memory required for data: 712295424
I0921 14:39:18.564529 25129 layer_factory.hpp:77] Creating layer rpn_cls_prob
I0921 14:39:18.564533 25129 net.cpp:106] Creating Layer rpn_cls_prob
I0921 14:39:18.564535 25129 net.cpp:454] rpn_cls_prob <- rpn_cls_score_reshape_rpn_cls_score_reshape_0_split_1
I0921 14:39:18.564539 25129 net.cpp:411] rpn_cls_prob -> rpn_cls_prob
I0921 14:39:18.564581 25129 net.cpp:150] Setting up rpn_cls_prob
I0921 14:39:18.564587 25129 net.cpp:157] Top shape: 1 2 171 63 (21546)
I0921 14:39:18.564589 25129 net.cpp:165] Memory required for data: 712381608
I0921 14:39:18.564591 25129 layer_factory.hpp:77] Creating layer rpn_cls_prob_reshape
I0921 14:39:18.564595 25129 net.cpp:106] Creating Layer rpn_cls_prob_reshape
I0921 14:39:18.564599 25129 net.cpp:454] rpn_cls_prob_reshape <- rpn_cls_prob
I0921 14:39:18.564602 25129 net.cpp:411] rpn_cls_prob_reshape -> rpn_cls_prob_reshape
I0921 14:39:18.564618 25129 net.cpp:150] Setting up rpn_cls_prob_reshape
I0921 14:39:18.564623 25129 net.cpp:157] Top shape: 1 18 19 63 (21546)
I0921 14:39:18.564626 25129 net.cpp:165] Memory required for data: 712467792
I0921 14:39:18.564628 25129 layer_factory.hpp:77] Creating layer proposal
I0921 14:39:18.565131 25129 net.cpp:106] Creating Layer proposal
I0921 14:39:18.565141 25129 net.cpp:454] proposal <- rpn_cls_prob_reshape
I0921 14:39:18.565146 25129 net.cpp:454] proposal <- rpn_bbox_pred_rpn_bbox_pred_0_split_1
I0921 14:39:18.565150 25129 net.cpp:454] proposal <- im_info_input-data_1_split_1
I0921 14:39:18.565155 25129 net.cpp:411] proposal -> rpn_rois
I0921 14:39:18.565793 25129 net.cpp:150] Setting up proposal
I0921 14:39:18.565804 25129 net.cpp:157] Top shape: 1 5 (5)
I0921 14:39:18.565807 25129 net.cpp:165] Memory required for data: 712467812
I0921 14:39:18.565810 25129 layer_factory.hpp:77] Creating layer roi-data
I0921 14:39:18.565938 25129 net.cpp:106] Creating Layer roi-data
I0921 14:39:18.565946 25129 net.cpp:454] roi-data <- rpn_rois
I0921 14:39:18.565950 25129 net.cpp:454] roi-data <- gt_boxes_input-data_2_split_1
I0921 14:39:18.565954 25129 net.cpp:411] roi-data -> rois
I0921 14:39:18.565960 25129 net.cpp:411] roi-data -> labels
I0921 14:39:18.565965 25129 net.cpp:411] roi-data -> bbox_targets
I0921 14:39:18.565970 25129 net.cpp:411] roi-data -> bbox_inside_weights
I0921 14:39:18.565974 25129 net.cpp:411] roi-data -> bbox_outside_weights
I0921 14:39:18.566260 25129 net.cpp:150] Setting up roi-data
I0921 14:39:18.566272 25129 net.cpp:157] Top shape: 1 5 (5)
I0921 14:39:18.566274 25129 net.cpp:157] Top shape: 1 1 (1)
I0921 14:39:18.566277 25129 net.cpp:157] Top shape: 1 8 (8)
I0921 14:39:18.566279 25129 net.cpp:157] Top shape: 1 8 (8)
I0921 14:39:18.566282 25129 net.cpp:157] Top shape: 1 8 (8)
I0921 14:39:18.566284 25129 net.cpp:165] Memory required for data: 712467932
I0921 14:39:18.566287 25129 layer_factory.hpp:77] Creating layer labels_roi-data_1_split
I0921 14:39:18.566293 25129 net.cpp:106] Creating Layer labels_roi-data_1_split
I0921 14:39:18.566294 25129 net.cpp:454] labels_roi-data_1_split <- labels
I0921 14:39:18.566299 25129 net.cpp:411] labels_roi-data_1_split -> labels_roi-data_1_split_0
I0921 14:39:18.566304 25129 net.cpp:411] labels_roi-data_1_split -> labels_roi-data_1_split_1
I0921 14:39:18.566329 25129 net.cpp:150] Setting up labels_roi-data_1_split
I0921 14:39:18.566334 25129 net.cpp:157] Top shape: 1 1 (1)
I0921 14:39:18.566336 25129 net.cpp:157] Top shape: 1 1 (1)
I0921 14:39:18.566339 25129 net.cpp:165] Memory required for data: 712467940
I0921 14:39:18.566340 25129 layer_factory.hpp:77] Creating layer roi_pool5
I0921 14:39:18.566349 25129 net.cpp:106] Creating Layer roi_pool5
I0921 14:39:18.566352 25129 net.cpp:454] roi_pool5 <- conv5_3_relu5_3_0_split_1
I0921 14:39:18.566355 25129 net.cpp:454] roi_pool5 <- rois
I0921 14:39:18.566359 25129 net.cpp:411] roi_pool5 -> pool5
I0921 14:39:18.566364 25129 roi_pooling_layer.cpp:30] Spatial scale: 0.0625
I0921 14:39:18.566395 25129 net.cpp:150] Setting up roi_pool5
I0921 14:39:18.566402 25129 net.cpp:157] Top shape: 1 512 7 7 (25088)
I0921 14:39:18.566404 25129 net.cpp:165] Memory required for data: 712568292
I0921 14:39:18.566406 25129 layer_factory.hpp:77] Creating layer fc6
I0921 14:39:18.566411 25129 net.cpp:106] Creating Layer fc6
I0921 14:39:18.566414 25129 net.cpp:454] fc6 <- pool5
I0921 14:39:18.566417 25129 net.cpp:411] fc6 -> fc6
I0921 14:39:18.738699 25129 net.cpp:150] Setting up fc6
I0921 14:39:18.738724 25129 net.cpp:157] Top shape: 1 4096 (4096)
I0921 14:39:18.738728 25129 net.cpp:165] Memory required for data: 712584676
I0921 14:39:18.738742 25129 layer_factory.hpp:77] Creating layer relu6
I0921 14:39:18.738752 25129 net.cpp:106] Creating Layer relu6
I0921 14:39:18.738755 25129 net.cpp:454] relu6 <- fc6
I0921 14:39:18.738762 25129 net.cpp:397] relu6 -> fc6 (in-place)
I0921 14:39:18.738770 25129 net.cpp:150] Setting up relu6
I0921 14:39:18.738773 25129 net.cpp:157] Top shape: 1 4096 (4096)
I0921 14:39:18.738775 25129 net.cpp:165] Memory required for data: 712601060
I0921 14:39:18.738777 25129 layer_factory.hpp:77] Creating layer drop6
I0921 14:39:18.738782 25129 net.cpp:106] Creating Layer drop6
I0921 14:39:18.738792 25129 net.cpp:454] drop6 <- fc6
I0921 14:39:18.738795 25129 net.cpp:397] drop6 -> fc6 (in-place)
I0921 14:39:18.738814 25129 net.cpp:150] Setting up drop6
I0921 14:39:18.738819 25129 net.cpp:157] Top shape: 1 4096 (4096)
I0921 14:39:18.738821 25129 net.cpp:165] Memory required for data: 712617444
I0921 14:39:18.738823 25129 layer_factory.hpp:77] Creating layer fc7
I0921 14:39:18.738829 25129 net.cpp:106] Creating Layer fc7
I0921 14:39:18.738831 25129 net.cpp:454] fc7 <- fc6
I0921 14:39:18.738840 25129 net.cpp:411] fc7 -> fc7
I0921 14:39:18.766600 25129 net.cpp:150] Setting up fc7
I0921 14:39:18.766628 25129 net.cpp:157] Top shape: 1 4096 (4096)
I0921 14:39:18.766630 25129 net.cpp:165] Memory required for data: 712633828
I0921 14:39:18.766638 25129 layer_factory.hpp:77] Creating layer relu7
I0921 14:39:18.766647 25129 net.cpp:106] Creating Layer relu7
I0921 14:39:18.766651 25129 net.cpp:454] relu7 <- fc7
I0921 14:39:18.766657 25129 net.cpp:397] relu7 -> fc7 (in-place)
I0921 14:39:18.766664 25129 net.cpp:150] Setting up relu7
I0921 14:39:18.766667 25129 net.cpp:157] Top shape: 1 4096 (4096)
I0921 14:39:18.766669 25129 net.cpp:165] Memory required for data: 712650212
I0921 14:39:18.766671 25129 layer_factory.hpp:77] Creating layer drop7
I0921 14:39:18.766676 25129 net.cpp:106] Creating Layer drop7
I0921 14:39:18.766680 25129 net.cpp:454] drop7 <- fc7
I0921 14:39:18.766682 25129 net.cpp:397] drop7 -> fc7 (in-place)
I0921 14:39:18.766700 25129 net.cpp:150] Setting up drop7
I0921 14:39:18.766705 25129 net.cpp:157] Top shape: 1 4096 (4096)
I0921 14:39:18.766707 25129 net.cpp:165] Memory required for data: 712666596
I0921 14:39:18.766710 25129 layer_factory.hpp:77] Creating layer fc7_drop7_0_split
I0921 14:39:18.766716 25129 net.cpp:106] Creating Layer fc7_drop7_0_split
I0921 14:39:18.766717 25129 net.cpp:454] fc7_drop7_0_split <- fc7
I0921 14:39:18.766721 25129 net.cpp:411] fc7_drop7_0_split -> fc7_drop7_0_split_0
I0921 14:39:18.766726 25129 net.cpp:411] fc7_drop7_0_split -> fc7_drop7_0_split_1
I0921 14:39:18.766754 25129 net.cpp:150] Setting up fc7_drop7_0_split
I0921 14:39:18.766758 25129 net.cpp:157] Top shape: 1 4096 (4096)
I0921 14:39:18.766762 25129 net.cpp:157] Top shape: 1 4096 (4096)
I0921 14:39:18.766764 25129 net.cpp:165] Memory required for data: 712699364
I0921 14:39:18.766767 25129 layer_factory.hpp:77] Creating layer cls_score
I0921 14:39:18.766772 25129 net.cpp:106] Creating Layer cls_score
I0921 14:39:18.766782 25129 net.cpp:454] cls_score <- fc7_drop7_0_split_0
I0921 14:39:18.766790 25129 net.cpp:411] cls_score -> cls_score
I0921 14:39:18.767076 25129 net.cpp:150] Setting up cls_score
I0921 14:39:18.767082 25129 net.cpp:157] Top shape: 1 2 (2)
I0921 14:39:18.767084 25129 net.cpp:165] Memory required for data: 712699372
I0921 14:39:18.767089 25129 layer_factory.hpp:77] Creating layer cls_score_cls_score_0_split
I0921 14:39:18.767103 25129 net.cpp:106] Creating Layer cls_score_cls_score_0_split
I0921 14:39:18.767105 25129 net.cpp:454] cls_score_cls_score_0_split <- cls_score
I0921 14:39:18.767109 25129 net.cpp:411] cls_score_cls_score_0_split -> cls_score_cls_score_0_split_0
I0921 14:39:18.767127 25129 net.cpp:411] cls_score_cls_score_0_split -> cls_score_cls_score_0_split_1
I0921 14:39:18.767150 25129 net.cpp:150] Setting up cls_score_cls_score_0_split
I0921 14:39:18.767155 25129 net.cpp:157] Top shape: 1 2 (2)
I0921 14:39:18.767158 25129 net.cpp:157] Top shape: 1 2 (2)
I0921 14:39:18.767160 25129 net.cpp:165] Memory required for data: 712699388
I0921 14:39:18.767163 25129 layer_factory.hpp:77] Creating layer bbox_pred
I0921 14:39:18.767166 25129 net.cpp:106] Creating Layer bbox_pred
I0921 14:39:18.767169 25129 net.cpp:454] bbox_pred <- fc7_drop7_0_split_1
I0921 14:39:18.767174 25129 net.cpp:411] bbox_pred -> bbox_pred
I0921 14:39:18.768102 25129 net.cpp:150] Setting up bbox_pred
I0921 14:39:18.768110 25129 net.cpp:157] Top shape: 1 8 (8)
I0921 14:39:18.768112 25129 net.cpp:165] Memory required for data: 712699420
I0921 14:39:18.768117 25129 layer_factory.hpp:77] Creating layer loss_cls
I0921 14:39:18.768122 25129 net.cpp:106] Creating Layer loss_cls
I0921 14:39:18.768124 25129 net.cpp:454] loss_cls <- cls_score_cls_score_0_split_0
I0921 14:39:18.768128 25129 net.cpp:454] loss_cls <- labels_roi-data_1_split_0
I0921 14:39:18.768132 25129 net.cpp:411] loss_cls -> loss_cls
…
